2022-07-09 12:18:47,558 - KGE-only - INFO - --- Parameters are parsed for training ---
2022-07-09 12:18:47,633 - KGE-only - INFO -  Standard training starts: KGEModel-labeling:TriplePrediction
2022-07-09 12:18:47,634 - KGE-only - INFO - KGEModel(
  (loss): BCELoss()
  (entity_embeddings): Embedding(1519, 100)
  (relation_embeddings): Embedding(8, 100)
  (shallom): Sequential(
    (0): Linear(in_features=300, out_features=100, bias=True)
    (1): Dropout(p=0.5, inplace=False)
    (2): BatchNorm1d(100, eps=1e-05, momentum=0.1, affine=True, track_running_stats=True)
    (3): Dropout(p=0.5, inplace=False)
    (4): ReLU(inplace=True)
    (5): Dropout(p=0.5, inplace=False)
    (6): Linear(in_features=100, out_features=1, bias=True)
  )
)
2022-07-09 12:20:13,423 - KGE-only - INFO - Evaluation of Train data: TriplePrediction
2022-07-09 12:20:13,424 - KGE-only - INFO - Num of triples 1000
2022-07-09 12:20:13,429 - KGE-only - INFO - 0.608
2022-07-09 12:20:13,437 - KGE-only - INFO -               precision    recall  f1-score   support

           0       0.66      0.46      0.54       500
…
weighted avg       0.57      0.57      0.56       935

2022-07-09 12:20:13,451 - KGE-only - INFO - --- Training is completed  ---
2022-07-09 12:20:13,451 - KGE-only - INFO - Store full model.
2022-07-09 12:20:13,510 - KGE-only - INFO - Stored data.
2022-07-09 12:20:13,511 - KGE-only - INFO - Total Runtime:1.433 minutes
2022-07-09 12:20:14,241 - KGE-only - INFO - --- Parameters are parsed for training ---
2022-07-09 12:20:14,268 - KGE-only - INFO -  Standard training starts: KGEModel-labeling:TriplePrediction
2022-07-09 12:20:14,269 - KGE-only - INFO - KGEModel(
  (loss): BCELoss()
  (entity_embeddings): Embedding(1503, 100)
  (relation_embeddings): Embedding(8, 100)
  (shallom): Sequential(
    (0): Linear(in_features=300, out_features=100, bias=True)
    (1): Dropout(p=0.5, inplace=False)
    (2): BatchNorm1d(100, eps=1e-05, momentum=0.1, affine=True, track_running_stats=True)
    (3): Dropout(p=0.5, inplace=False)
    (4): ReLU(inplace=True)
    (5): Dropout(p=0.5, inplace=False)
    (6): Linear(in_features=100, out_features=1, bias=True)
  )
)
2022-07-09 12:21:37,373 - KGE-only - INFO - Evaluation of Train data: TriplePrediction
2022-07-09 12:21:37,375 - KGE-only - INFO - Num of triples 990
2022-07-09 12:21:37,381 - KGE-only - INFO - 0.6363636363636364
2022-07-09 12:21:37,387 - KGE-only - INFO -               precision    recall  f1-score   support

           0       0.61      0.75      0.67       490
…
weighted avg       0.55      0.55      0.54       939

2022-07-09 12:21:37,402 - KGE-only - INFO - --- Training is completed  ---
2022-07-09 12:21:37,403 - KGE-only - INFO - Store full model.
2022-07-09 12:21:37,468 - KGE-only - INFO - Stored data.
2022-07-09 12:21:37,469 - KGE-only - INFO - Total Runtime:1.387 minutes
2022-07-09 12:21:38,236 - KGE-only - INFO - --- Parameters are parsed for training ---
2022-07-09 12:21:38,263 - KGE-only - INFO -  Standard training starts: KGEModel-labeling:TriplePrediction
2022-07-09 12:21:38,265 - KGE-only - INFO - KGEModel(
  (loss): BCELoss()
  (entity_embeddings): Embedding(1584, 100)
  (relation_embeddings): Embedding(8, 100)
  (shallom): Sequential(
    (0): Linear(in_features=300, out_features=100, bias=True)
    (1): Dropout(p=0.5, inplace=False)
    (2): BatchNorm1d(100, eps=1e-05, momentum=0.1, affine=True, track_running_stats=True)
    (3): Dropout(p=0.5, inplace=False)
    (4): ReLU(inplace=True)
    (5): Dropout(p=0.5, inplace=False)
    (6): Linear(in_features=100, out_features=1, bias=True)
  )
)
2022-07-09 12:23:00,394 - KGE-only - INFO - Evaluation of Train data: TriplePrediction
2022-07-09 12:23:00,395 - KGE-only - INFO - Num of triples 1025
2022-07-09 12:23:00,401 - KGE-only - INFO - 0.6253658536585366
2022-07-09 12:23:00,408 - KGE-only - INFO -               precision    recall  f1-score   support

           0       0.72      0.44      0.55       525
…
weighted avg       0.62      0.59      0.58       972

2022-07-09 12:23:00,424 - KGE-only - INFO - --- Training is completed  ---
2022-07-09 12:23:00,425 - KGE-only - INFO - Store full model.
2022-07-09 12:23:00,481 - KGE-only - INFO - Stored data.
2022-07-09 12:23:00,482 - KGE-only - INFO - Total Runtime:1.371 minutes
2022-07-09 12:23:01,286 - KGE-only - INFO - --- Parameters are parsed for training ---
2022-07-09 12:23:01,315 - KGE-only - INFO -  Standard training starts: KGEModel-labeling:TriplePrediction
2022-07-09 12:23:01,316 - KGE-only - INFO - KGEModel(
  (loss): BCELoss()
  (entity_embeddings): Embedding(1614, 100)
  (relation_embeddings): Embedding(8, 100)
  (shallom): Sequential(
    (0): Linear(in_features=300, out_features=100, bias=True)
    (1): Dropout(p=0.5, inplace=False)
    (2): BatchNorm1d(100, eps=1e-05, momentum=0.1, affine=True, track_running_stats=True)
    (3): Dropout(p=0.5, inplace=False)
    (4): ReLU(inplace=True)
    (5): Dropout(p=0.5, inplace=False)
    (6): Linear(in_features=100, out_features=1, bias=True)
  )
)
2022-07-09 12:24:23,302 - KGE-only - INFO - Evaluation of Train data: TriplePrediction
2022-07-09 12:24:23,303 - KGE-only - INFO - Num of triples 1061
2022-07-09 12:24:23,310 - KGE-only - INFO - 0.8680490103675778
2022-07-09 12:24:23,320 - KGE-only - INFO -               precision    recall  f1-score   support

           0       0.84      0.92      0.88       561
…
weighted avg       0.83      0.82      0.82       979

2022-07-09 12:24:23,339 - KGE-only - INFO - --- Training is completed  ---
2022-07-09 12:24:23,340 - KGE-only - INFO - Store full model.
2022-07-09 12:24:23,408 - KGE-only - INFO - Stored data.
2022-07-09 12:24:23,409 - KGE-only - INFO - Total Runtime:1.369 minutes
2022-07-09 13:41:46,179 - KGE-only - INFO - --- Parameters are parsed for training ---
2022-07-09 13:41:46,210 - KGE-only - INFO -  Standard training starts: KGEModel-labeling:TriplePrediction
2022-07-09 13:41:46,211 - KGE-only - INFO - KGEModel(
  (loss): BCELoss()
  (entity_embeddings): Embedding(1707, 100)
  (relation_embeddings): Embedding(8, 100)
  (shallom): Sequential(
    (0): Linear(in_features=300, out_features=100, bias=True)
    (1): Dropout(p=0.5, inplace=False)
    (2): BatchNorm1d(100, eps=1e-05, momentum=0.1, affine=True, track_running_stats=True)
    (3): Dropout(p=0.5, inplace=False)
    (4): ReLU(inplace=True)
    (5): Dropout(p=0.5, inplace=False)
    (6): Linear(in_features=100, out_features=1, bias=True)
  )
)
2022-07-09 13:45:09,736 - KGE-only - INFO - Evaluation of Train data: TriplePrediction
2022-07-09 13:45:09,738 - KGE-only - INFO - Num of triples 1032
2022-07-09 13:45:09,745 - KGE-only - INFO - 0.9738372093023255
2022-07-09 13:45:09,752 - KGE-only - INFO -               precision    recall  f1-score   support

           0       1.00      0.95      0.97       532
…
weighted avg       0.96      0.96      0.96       947

2022-07-09 13:45:09,767 - KGE-only - INFO - --- Training is completed  ---
2022-07-09 13:45:09,768 - KGE-only - INFO - Store full model.
2022-07-09 13:45:09,864 - KGE-only - INFO - Stored data.
2022-07-09 13:45:09,865 - KGE-only - INFO - Total Runtime:3.395 minutes
2022-07-09 13:45:10,570 - KGE-only - INFO - --- Parameters are parsed for training ---
2022-07-09 13:45:10,597 - KGE-only - INFO -  Standard training starts: KGEModel-labeling:TriplePrediction
2022-07-09 13:45:10,598 - KGE-only - INFO - KGEModel(
  (loss): BCELoss()
  (entity_embeddings): Embedding(1512, 100)
  (relation_embeddings): Embedding(8, 100)
  (shallom): Sequential(
    (0): Linear(in_features=300, out_features=100, bias=True)
    (1): Dropout(p=0.5, inplace=False)
    (2): BatchNorm1d(100, eps=1e-05, momentum=0.1, affine=True, track_running_stats=True)
    (3): Dropout(p=0.5, inplace=False)
    (4): ReLU(inplace=True)
    (5): Dropout(p=0.5, inplace=False)
    (6): Linear(in_features=100, out_features=1, bias=True)
  )
)
2022-07-09 13:48:46,621 - KGE-only - INFO - Evaluation of Train data: TriplePrediction
2022-07-09 13:48:46,622 - KGE-only - INFO - Num of triples 999
2022-07-09 13:48:46,628 - KGE-only - INFO - 0.6156156156156156
2022-07-09 13:48:46,635 - KGE-only - INFO -               precision    recall  f1-score   support

           0       0.73      0.36      0.49       499
…
