2022-07-09 11:58:18,316 - text-path-Hybrid - INFO - --- Parameters are parsed for training ---
2022-07-09 11:58:19,109 - text-path-Hybrid - INFO -  Standard training starts: TextPathHybridModel-labeling:TriplePrediction
2022-07-09 11:58:19,110 - text-path-Hybrid - INFO - TextPathHybridModel(
  (loss): BCELoss()
  (entity_embeddings): Embedding(1614, 100)
  (relation_embeddings): Embedding(8, 100)
  (sentence_embeddings_train): Embedding(1061, 2304)
  (sentence_embeddings_test): Embedding(979, 2304)
  (sentence_embeddings_valid): Embedding(52, 2304)
  (copaal_veracity_score_train): Embedding(1061, 1)
  (copaal_veracity_score_test): Embedding(979, 1)
  (copaal_veracity_score_valid): Embedding(52, 1)
  (sentence_classification_layer): Sequential(
    (0): Linear(in_features=2304, out_features=2560, bias=True)
    (1): BatchNorm1d(2560, eps=1e-05, momentum=0.1, affine=True, track_running_stats=True)
    (2): ReLU()
    (3): Dropout(p=0.5, inplace=False)
    (4): Linear(in_features=2560, out_features=2560, bias=True)
  )
  (path_classification_layer): Sequential(
    (0): Linear(in_features=1, out_features=2560, bias=True)
    (1): BatchNorm1d(2560, eps=1e-05, momentum=0.1, affine=True, track_running_stats=True)
    (2): ReLU()
    (3): Dropout(p=0.5, inplace=False)
    (4): Linear(in_features=2560, out_features=2560, bias=True)
  )
  (final_classification_layer): Sequential(
    (0): Linear(in_features=5120, out_features=2560, bias=True)
    (1): BatchNorm1d(2560, eps=1e-05, momentum=0.1, affine=True, track_running_stats=True)
    (2): ReLU()
    (3): Dropout(p=0.5, inplace=False)
    (4): Linear(in_features=2560, out_features=1, bias=True)
  )
)
2022-07-09 11:59:12,411 - text-path-Hybrid - INFO - Evaluation of Train data: TriplePrediction
2022-07-09 11:59:12,412 - text-path-Hybrid - INFO - Num of triples 1061
2022-07-09 11:59:12,517 - text-path-Hybrid - INFO - 0.8265786993402451
2022-07-09 11:59:12,523 - text-path-Hybrid - INFO -               precision    recall  f1-score   support

           0       0.76      0.98      0.86       561
…
2022-07-09 11:59:12,595 - text-path-Hybrid - INFO - --- Training is completed  ---
2022-07-09 11:59:12,596 - text-path-Hybrid - INFO - Store full model.
2022-07-09 11:59:12,831 - text-path-Hybrid - INFO - Stored data.
2022-07-09 11:59:12,831 - text-path-Hybrid - INFO - Total Runtime:0.909 minutes
2022-07-09 12:54:27,207 - text-path-Hybrid - INFO - --- Parameters are parsed for training ---
2022-07-09 12:54:28,025 - text-path-Hybrid - INFO -  Standard training starts: TextPathHybridModel-labeling:TriplePrediction
2022-07-09 12:54:28,026 - text-path-Hybrid - INFO - TextPathHybridModel(
  (loss): BCELoss()
  (entity_embeddings): Embedding(1707, 100)
  (relation_embeddings): Embedding(8, 100)
  (sentence_embeddings_train): Embedding(1032, 2304)
  (sentence_embeddings_test): Embedding(947, 2304)
  (sentence_embeddings_valid): Embedding(50, 2304)
  (copaal_veracity_score_train): Embedding(1032, 1)
  (copaal_veracity_score_test): Embedding(947, 1)
  (copaal_veracity_score_valid): Embedding(50, 1)
  (sentence_classification_layer): Sequential(
    (0): Linear(in_features=2304, out_features=2560, bias=True)
    (1): BatchNorm1d(2560, eps=1e-05, momentum=0.1, affine=True, track_running_stats=True)
    (2): ReLU()
    (3): Dropout(p=0.5, inplace=False)
    (4): Linear(in_features=2560, out_features=2560, bias=True)
  )
  (path_classification_layer): Sequential(
    (0): Linear(in_features=1, out_features=2560, bias=True)
    (1): BatchNorm1d(2560, eps=1e-05, momentum=0.1, affine=True, track_running_stats=True)
    (2): ReLU()
    (3): Dropout(p=0.5, inplace=False)
    (4): Linear(in_features=2560, out_features=2560, bias=True)
  )
  (final_classification_layer): Sequential(
    (0): Linear(in_features=5120, out_features=2560, bias=True)
    (1): BatchNorm1d(2560, eps=1e-05, momentum=0.1, affine=True, track_running_stats=True)
    (2): ReLU()
    (3): Dropout(p=0.5, inplace=False)
    (4): Linear(in_features=2560, out_features=1, bias=True)
  )
)
2022-07-09 12:56:20,314 - text-path-Hybrid - INFO - Evaluation of Train data: TriplePrediction
2022-07-09 12:56:20,315 - text-path-Hybrid - INFO - Num of triples 1032
2022-07-09 12:56:20,487 - text-path-Hybrid - INFO - 0.8013565891472868
2022-07-09 12:56:20,494 - text-path-Hybrid - INFO -               precision    recall  f1-score   support

           0       0.74      0.95      0.83       532
…
2022-07-09 12:56:20,622 - text-path-Hybrid - INFO - --- Training is completed  ---
2022-07-09 12:56:20,623 - text-path-Hybrid - INFO - Store full model.
2022-07-09 12:56:20,908 - text-path-Hybrid - INFO - Stored data.
2022-07-09 12:56:20,909 - text-path-Hybrid - INFO - Total Runtime:1.895 minutes
2022-07-09 12:56:23,308 - text-path-Hybrid - INFO - --- Parameters are parsed for training ---
2022-07-09 12:56:24,076 - text-path-Hybrid - INFO -  Standard training starts: TextPathHybridModel-labeling:TriplePrediction
2022-07-09 12:56:24,077 - text-path-Hybrid - INFO - TextPathHybridModel(
  (loss): BCELoss()
  (entity_embeddings): Embedding(1512, 100)
  (relation_embeddings): Embedding(8, 100)
  (sentence_embeddings_train): Embedding(999, 2304)
  (sentence_embeddings_test): Embedding(935, 2304)
  (sentence_embeddings_valid): Embedding(50, 2304)
  (copaal_veracity_score_train): Embedding(999, 1)
  (copaal_veracity_score_test): Embedding(935, 1)
  (copaal_veracity_score_valid): Embedding(50, 1)
  (sentence_classification_layer): Sequential(
    (0): Linear(in_features=2304, out_features=2560, bias=True)
    (1): BatchNorm1d(2560, eps=1e-05, momentum=0.1, affine=True, track_running_stats=True)
    (2): ReLU()
    (3): Dropout(p=0.5, inplace=False)
    (4): Linear(in_features=2560, out_features=2560, bias=True)
  )
  (path_classification_layer): Sequential(
    (0): Linear(in_features=1, out_features=2560, bias=True)
    (1): BatchNorm1d(2560, eps=1e-05, momentum=0.1, affine=True, track_running_stats=True)
    (2): ReLU()
    (3): Dropout(p=0.5, inplace=False)
    (4): Linear(in_features=2560, out_features=2560, bias=True)
  )
  (final_classification_layer): Sequential(
    (0): Linear(in_features=5120, out_features=2560, bias=True)
    (1): BatchNorm1d(2560, eps=1e-05, momentum=0.1, affine=True, track_running_stats=True)
    (2): ReLU()
    (3): Dropout(p=0.5, inplace=False)
    (4): Linear(in_features=2560, out_features=1, bias=True)
  )
)
2022-07-09 12:58:06,983 - text-path-Hybrid - INFO - Evaluation of Train data: TriplePrediction
2022-07-09 12:58:06,985 - text-path-Hybrid - INFO - Num of triples 999
2022-07-09 12:58:07,147 - text-path-Hybrid - INFO - 0.7897897897897898
2022-07-09 12:58:07,153 - text-path-Hybrid - INFO -               precision    recall  f1-score   support

           0       0.73      0.92      0.81       499
…
2022-07-09 12:58:07,279 - text-path-Hybrid - INFO - --- Training is completed  ---
2022-07-09 12:58:07,280 - text-path-Hybrid - INFO - Store full model.
2022-07-09 12:58:07,527 - text-path-Hybrid - INFO - Stored data.
2022-07-09 12:58:07,528 - text-path-Hybrid - INFO - Total Runtime:1.737 minutes
2022-07-09 12:58:09,291 - text-path-Hybrid - INFO - --- Parameters are parsed for training ---
2022-07-09 12:58:10,047 - text-path-Hybrid - INFO -  Standard training starts: TextPathHybridModel-labeling:TriplePrediction
2022-07-09 12:58:10,048 - text-path-Hybrid - INFO - TextPathHybridModel(
  (loss): BCELoss()
  (entity_embeddings): Embedding(1519, 100)
  (relation_embeddings): Embedding(8, 100)
  (sentence_embeddings_train): Embedding(1000, 2304)
  (sentence_embeddings_test): Embedding(935, 2304)
  (sentence_embeddings_valid): Embedding(50, 2304)
  (copaal_veracity_score_train): Embedding(1000, 1)
  (copaal_veracity_score_test): Embedding(935, 1)
  (copaal_veracity_score_valid): Embedding(50, 1)
  (sentence_classification_layer): Sequential(
    (0): Linear(in_features=2304, out_features=2560, bias=True)
    (1): BatchNorm1d(2560, eps=1e-05, momentum=0.1, affine=True, track_running_stats=True)
    (2): ReLU()
    (3): Dropout(p=0.5, inplace=False)
    (4): Linear(in_features=2560, out_features=2560, bias=True)
  )
  (path_classification_layer): Sequential(
    (0): Linear(in_features=1, out_features=2560, bias=True)
    (1): BatchNorm1d(2560, eps=1e-05, momentum=0.1, affine=True, track_running_stats=True)
    (2): ReLU()
    (3): Dropout(p=0.5, inplace=False)
    (4): Linear(in_features=2560, out_features=2560, bias=True)
  )
  (final_classification_layer): Sequential(
    (0): Linear(in_features=5120, out_features=2560, bias=True)
    (1): BatchNorm1d(2560, eps=1e-05, momentum=0.1, affine=True, track_running_stats=True)
    (2): ReLU()
    (3): Dropout(p=0.5, inplace=False)
    (4): Linear(in_features=2560, out_features=1, bias=True)
  )
)
2022-07-09 12:59:53,514 - text-path-Hybrid - INFO - Evaluation of Train data: TriplePrediction
2022-07-09 12:59:53,516 - text-path-Hybrid - INFO - Num of triples 1000
2022-07-09 12:59:53,676 - text-path-Hybrid - INFO - 0.805
2022-07-09 12:59:53,683 - text-path-Hybrid - INFO -               precision    recall  f1-score   support

           0       0.74      0.95      0.83       500
…
2022-07-09 12:59:53,811 - text-path-Hybrid - INFO - --- Training is completed  ---
2022-07-09 12:59:53,811 - text-path-Hybrid - INFO - Store full model.
2022-07-09 12:59:54,053 - text-path-Hybrid - INFO - Stored data.
2022-07-09 12:59:54,054 - text-path-Hybrid - INFO - Total Runtime:1.746 minutes
2022-07-09 12:59:55,819 - text-path-Hybrid - INFO - --- Parameters are parsed for training ---
2022-07-09 12:59:56,570 - text-path-Hybrid - INFO -  Standard training starts: TextPathHybridModel-labeling:TriplePrediction
2022-07-09 12:59:56,571 - text-path-Hybrid - INFO - TextPathHybridModel(
  (loss): BCELoss()
  (entity_embeddings): Embedding(1503, 100)
  (relation_embeddings): Embedding(8, 100)
  (sentence_embeddings_train): Embedding(990, 2304)
  (sentence_embeddings_test): Embedding(939, 2304)
  (sentence_embeddings_valid): Embedding(50, 2304)
  (copaal_veracity_score_train): Embedding(990, 1)
  (copaal_veracity_score_test): Embedding(939, 1)
  (copaal_veracity_score_valid): Embedding(50, 1)
  (sentence_classification_layer): Sequential(
    (0): Linear(in_features=2304, out_features=2560, bias=True)
    (1): BatchNorm1d(2560, eps=1e-05, momentum=0.1, affine=True, track_running_stats=True)
    (2): ReLU()
    (3): Dropout(p=0.5, inplace=False)
    (4): Linear(in_features=2560, out_features=2560, bias=True)
  )
  (path_classification_layer): Sequential(
    (0): Linear(in_features=1, out_features=2560, bias=True)
    (1): BatchNorm1d(2560, eps=1e-05, momentum=0.1, affine=True, track_running_stats=True)
    (2): ReLU()
    (3): Dropout(p=0.5, inplace=False)
    (4): Linear(in_features=2560, out_features=2560, bias=True)
  )
  (final_classification_layer): Sequential(
    (0): Linear(in_features=5120, out_features=2560, bias=True)
    (1): BatchNorm1d(2560, eps=1e-05, momentum=0.1, affine=True, track_running_stats=True)
    (2): ReLU()
    (3): Dropout(p=0.5, inplace=False)
    (4): Linear(in_features=2560, out_features=1, bias=True)
  )
)
2022-07-09 13:01:38,146 - text-path-Hybrid - INFO - Evaluation of Train data: TriplePrediction
2022-07-09 13:01:38,148 - text-path-Hybrid - INFO - Num of triples 990
2022-07-09 13:01:38,302 - text-path-Hybrid - INFO - 0.796969696969697
2022-07-09 13:01:38,309 - text-path-Hybrid - INFO -               precision    recall  f1-score   support

           0       0.73      0.93      0.82       490
…
2022-07-09 13:01:38,431 - text-path-Hybrid - INFO - --- Training is completed  ---
2022-07-09 13:01:38,432 - text-path-Hybrid - INFO - Store full model.
2022-07-09 13:01:38,674 - text-path-Hybrid - INFO - Stored data.
2022-07-09 13:01:38,674 - text-path-Hybrid - INFO - Total Runtime:1.714 minutes
2022-07-09 13:01:40,564 - text-path-Hybrid - INFO - --- Parameters are parsed for training ---
2022-07-09 13:01:41,357 - text-path-Hybrid - INFO -  Standard training starts: TextPathHybridModel-labeling:TriplePrediction
2022-07-09 13:01:41,358 - text-path-Hybrid - INFO - TextPathHybridModel(
  (loss): BCELoss()
  (entity_embeddings): Embedding(1584, 100)
  (relation_embeddings): Embedding(8, 100)
  (sentence_embeddings_train): Embedding(1025, 2304)
  (sentence_embeddings_test): Embedding(972, 2304)
  (sentence_embeddings_valid): Embedding(52, 2304)
  (copaal_veracity_score_train): Embedding(1025, 1)
  (copaal_veracity_score_test): Embedding(972, 1)
  (copaal_veracity_score_valid): Embedding(52, 1)
  (sentence_classification_layer): Sequential(
    (0): Linear(in_features=2304, out_features=2560, bias=True)
    (1): BatchNorm1d(2560, eps=1e-05, momentum=0.1, affine=True, track_running_stats=True)
    (2): ReLU()
    (3): Dropout(p=0.5, inplace=False)
    (4): Linear(in_features=2560, out_features=2560, bias=True)
  )
  (path_classification_layer): Sequential(
    (0): Linear(in_features=1, out_features=2560, bias=True)
    (1): BatchNorm1d(2560, eps=1e-05, momentum=0.1, affine=True, track_running_stats=True)
    (2): ReLU()
    (3): Dropout(p=0.5, inplace=False)
    (4): Linear(in_features=2560, out_features=2560, bias=True)
  )
  (final_classification_layer): Sequential(
    (0): Linear(in_features=5120, out_features=2560, bias=True)
    (1): BatchNorm1d(2560, eps=1e-05, momentum=0.1, affine=True, track_running_stats=True)
    (2): ReLU()
    (3): Dropout(p=0.5, inplace=False)
    (4): Linear(in_features=2560, out_features=1, bias=True)
  )
)
2022-07-09 13:03:25,639 - text-path-Hybrid - INFO - Evaluation of Train data: TriplePrediction
2022-07-09 13:03:25,641 - text-path-Hybrid - INFO - Num of triples 1025
2022-07-09 13:03:25,804 - text-path-Hybrid - INFO - 0.7502439024390244
2022-07-09 13:03:25,811 - text-path-Hybrid - INFO -               precision    recall  f1-score   support

           0       0.71      0.86      0.78       525
…
