2022-07-09 11:16:49,983 - path-only - INFO - --- Parameters are parsed for training ---
2022-07-09 11:16:50,081 - path-only - INFO -  Standard training starts: PathModel-labeling:TriplePrediction
2022-07-09 11:16:50,082 - path-only - INFO - PathModel(
  (loss): BCELoss()
  (copaal_veracity_score_train): Embedding(1000, 1)
  (copaal_veracity_score_test): Embedding(935, 1)
  (copaal_veracity_score_valid): Embedding(50, 1)
  (path_classification_layer): Sequential(
    (0): Linear(in_features=1, out_features=2560, bias=True)
    (1): BatchNorm1d(2560, eps=1e-05, momentum=0.1, affine=True, track_running_stats=True)
    (2): ReLU()
    (3): Dropout(p=0.5, inplace=False)
    (4): Linear(in_features=2560, out_features=2560, bias=True)
  )
  (final_classification_layer): Sequential(
    (0): Linear(in_features=2560, out_features=2560, bias=True)
    (1): BatchNorm1d(2560, eps=1e-05, momentum=0.1, affine=True, track_running_stats=True)
    (2): ReLU()
    (3): Dropout(p=0.5, inplace=False)
    (4): Linear(in_features=2560, out_features=1, bias=True)
  )
)
2022-07-09 11:17:12,554 - path-only - INFO - Evaluation of Train data: TriplePrediction
2022-07-09 11:17:12,554 - path-only - INFO - Num of triples 1000
2022-07-09 11:17:12,652 - path-only - INFO - 0.66
2022-07-09 11:17:12,658 - path-only - INFO -               precision    recall  f1-score   support

           0       0.61      0.91      0.73       500
…
weighted avg       0.67      0.63      0.61       935

2022-07-09 11:17:12,716 - path-only - INFO - --- Training is completed  ---
2022-07-09 11:17:12,716 - path-only - INFO - Store full model.
2022-07-09 11:17:12,840 - path-only - INFO - Stored data.
2022-07-09 11:17:12,840 - path-only - INFO - Total Runtime:0.381 minutes
2022-07-09 11:17:14,558 - path-only - INFO - --- Parameters are parsed for training ---
2022-07-09 11:17:14,655 - path-only - INFO -  Standard training starts: PathModel-labeling:TriplePrediction
2022-07-09 11:17:14,656 - path-only - INFO - PathModel(
  (loss): BCELoss()
  (copaal_veracity_score_train): Embedding(990, 1)
  (copaal_veracity_score_test): Embedding(939, 1)
  (copaal_veracity_score_valid): Embedding(50, 1)
  (path_classification_layer): Sequential(
    (0): Linear(in_features=1, out_features=2560, bias=True)
    (1): BatchNorm1d(2560, eps=1e-05, momentum=0.1, affine=True, track_running_stats=True)
    (2): ReLU()
    (3): Dropout(p=0.5, inplace=False)
    (4): Linear(in_features=2560, out_features=2560, bias=True)
  )
  (final_classification_layer): Sequential(
    (0): Linear(in_features=2560, out_features=2560, bias=True)
    (1): BatchNorm1d(2560, eps=1e-05, momentum=0.1, affine=True, track_running_stats=True)
    (2): ReLU()
    (3): Dropout(p=0.5, inplace=False)
    (4): Linear(in_features=2560, out_features=1, bias=True)
  )
)
2022-07-09 11:17:37,076 - path-only - INFO - Evaluation of Train data: TriplePrediction
2022-07-09 11:17:37,077 - path-only - INFO - Num of triples 990
2022-07-09 11:17:37,132 - path-only - INFO - 0.6636363636363637
2022-07-09 11:17:37,139 - path-only - INFO -               precision    recall  f1-score   support

           0       0.61      0.92      0.73       490
…
weighted avg       0.68      0.63      0.61       939

2022-07-09 11:17:37,207 - path-only - INFO - --- Training is completed  ---
2022-07-09 11:17:37,207 - path-only - INFO - Store full model.
2022-07-09 11:17:37,335 - path-only - INFO - Stored data.
2022-07-09 11:17:37,335 - path-only - INFO - Total Runtime:0.380 minutes
2022-07-09 11:17:39,488 - path-only - INFO - --- Parameters are parsed for training ---
2022-07-09 11:17:39,590 - path-only - INFO -  Standard training starts: PathModel-labeling:TriplePrediction
2022-07-09 11:17:39,591 - path-only - INFO - PathModel(
  (loss): BCELoss()
  (copaal_veracity_score_train): Embedding(1025, 1)
  (copaal_veracity_score_test): Embedding(972, 1)
  (copaal_veracity_score_valid): Embedding(52, 1)
  (path_classification_layer): Sequential(
    (0): Linear(in_features=1, out_features=2560, bias=True)
    (1): BatchNorm1d(2560, eps=1e-05, momentum=0.1, affine=True, track_running_stats=True)
    (2): ReLU()
    (3): Dropout(p=0.5, inplace=False)
    (4): Linear(in_features=2560, out_features=2560, bias=True)
  )
  (final_classification_layer): Sequential(
    (0): Linear(in_features=2560, out_features=2560, bias=True)
    (1): BatchNorm1d(2560, eps=1e-05, momentum=0.1, affine=True, track_running_stats=True)
    (2): ReLU()
    (3): Dropout(p=0.5, inplace=False)
    (4): Linear(in_features=2560, out_features=1, bias=True)
  )
)
2022-07-09 11:18:01,653 - path-only - INFO - Evaluation of Train data: TriplePrediction
2022-07-09 11:18:01,654 - path-only - INFO - Num of triples 1025
2022-07-09 11:18:01,724 - path-only - INFO - 0.6517073170731708
2022-07-09 11:18:01,731 - path-only - INFO -               precision    recall  f1-score   support

           0       0.61      0.88      0.72       525
…
weighted avg       0.63      0.61      0.59       972

2022-07-09 11:18:01,793 - path-only - INFO - --- Training is completed  ---
2022-07-09 11:18:01,793 - path-only - INFO - Store full model.
2022-07-09 11:18:01,923 - path-only - INFO - Stored data.
2022-07-09 11:18:01,924 - path-only - INFO - Total Runtime:0.374 minutes
2022-07-09 11:18:03,826 - path-only - INFO - --- Parameters are parsed for training ---
2022-07-09 11:18:03,921 - path-only - INFO -  Standard training starts: PathModel-labeling:TriplePrediction
2022-07-09 11:18:03,922 - path-only - INFO - PathModel(
  (loss): BCELoss()
  (copaal_veracity_score_train): Embedding(1061, 1)
  (copaal_veracity_score_test): Embedding(979, 1)
  (copaal_veracity_score_valid): Embedding(52, 1)
  (path_classification_layer): Sequential(
    (0): Linear(in_features=1, out_features=2560, bias=True)
    (1): BatchNorm1d(2560, eps=1e-05, momentum=0.1, affine=True, track_running_stats=True)
    (2): ReLU()
    (3): Dropout(p=0.5, inplace=False)
    (4): Linear(in_features=2560, out_features=2560, bias=True)
  )
  (final_classification_layer): Sequential(
    (0): Linear(in_features=2560, out_features=2560, bias=True)
    (1): BatchNorm1d(2560, eps=1e-05, momentum=0.1, affine=True, track_running_stats=True)
    (2): ReLU()
    (3): Dropout(p=0.5, inplace=False)
    (4): Linear(in_features=2560, out_features=1, bias=True)
  )
)
2022-07-09 11:18:26,206 - path-only - INFO - Evaluation of Train data: TriplePrediction
2022-07-09 11:18:26,207 - path-only - INFO - Num of triples 1061
2022-07-09 11:18:26,264 - path-only - INFO - 0.706880301602262
2022-07-09 11:18:26,270 - path-only - INFO -               precision    recall  f1-score   support

           0       0.65      0.97      0.78       561
…
weighted avg       0.71      0.66      0.63       979

2022-07-09 11:18:26,325 - path-only - INFO - --- Training is completed  ---
2022-07-09 11:18:26,325 - path-only - INFO - Store full model.
2022-07-09 11:18:26,467 - path-only - INFO - Stored data.
2022-07-09 11:18:26,468 - path-only - INFO - Total Runtime:0.377 minutes
2022-07-09 11:42:57,171 - path-only - INFO - --- Parameters are parsed for training ---
2022-07-09 11:42:57,268 - path-only - INFO -  Standard training starts: PathModel-labeling:TriplePrediction
2022-07-09 11:42:57,269 - path-only - INFO - PathModel(
  (loss): BCELoss()
  (copaal_veracity_score_train): Embedding(1032, 1)
  (copaal_veracity_score_test): Embedding(947, 1)
  (copaal_veracity_score_valid): Embedding(50, 1)
  (path_classification_layer): Sequential(
    (0): Linear(in_features=1, out_features=2560, bias=True)
    (1): BatchNorm1d(2560, eps=1e-05, momentum=0.1, affine=True, track_running_stats=True)
    (2): ReLU()
    (3): Dropout(p=0.5, inplace=False)
    (4): Linear(in_features=2560, out_features=2560, bias=True)
  )
  (final_classification_layer): Sequential(
    (0): Linear(in_features=2560, out_features=2560, bias=True)
    (1): BatchNorm1d(2560, eps=1e-05, momentum=0.1, affine=True, track_running_stats=True)
    (2): ReLU()
    (3): Dropout(p=0.5, inplace=False)
    (4): Linear(in_features=2560, out_features=1, bias=True)
  )
)
2022-07-09 11:43:41,511 - path-only - INFO - Evaluation of Train data: TriplePrediction
2022-07-09 11:43:41,512 - path-only - INFO - Num of triples 1032
2022-07-09 11:43:41,600 - path-only - INFO - 0.688953488372093
2022-07-09 11:43:41,606 - path-only - INFO -               precision    recall  f1-score   support

           0       0.63      0.95      0.76       532
…
weighted avg       0.69      0.65      0.62       947

2022-07-09 11:43:41,666 - path-only - INFO - --- Training is completed  ---
2022-07-09 11:43:41,667 - path-only - INFO - Store full model.
2022-07-09 11:43:41,828 - path-only - INFO - Stored data.
2022-07-09 11:43:41,829 - path-only - INFO - Total Runtime:0.744 minutes
2022-07-09 11:43:43,584 - path-only - INFO - --- Parameters are parsed for training ---
2022-07-09 11:43:43,683 - path-only - INFO -  Standard training starts: PathModel-labeling:TriplePrediction
2022-07-09 11:43:43,684 - path-only - INFO - PathModel(
  (loss): BCELoss()
  (copaal_veracity_score_train): Embedding(999, 1)
  (copaal_veracity_score_test): Embedding(935, 1)
  (copaal_veracity_score_valid): Embedding(50, 1)
  (path_classification_layer): Sequential(
    (0): Linear(in_features=1, out_features=2560, bias=True)
    (1): BatchNorm1d(2560, eps=1e-05, momentum=0.1, affine=True, track_running_stats=True)
    (2): ReLU()
    (3): Dropout(p=0.5, inplace=False)
    (4): Linear(in_features=2560, out_features=2560, bias=True)
  )
  (final_classification_layer): Sequential(
    (0): Linear(in_features=2560, out_features=2560, bias=True)
    (1): BatchNorm1d(2560, eps=1e-05, momentum=0.1, affine=True, track_running_stats=True)
    (2): ReLU()
    (3): Dropout(p=0.5, inplace=False)
    (4): Linear(in_features=2560, out_features=1, bias=True)
  )
)
2022-07-09 11:44:28,045 - path-only - INFO - Evaluation of Train data: TriplePrediction
2022-07-09 11:44:28,046 - path-only - INFO - Num of triples 999
2022-07-09 11:44:28,112 - path-only - INFO - 0.6616616616616616
2022-07-09 11:44:28,118 - path-only - INFO -               precision    recall  f1-score   support

           0       0.61      0.91      0.73       499
…
