2022-07-09 12:49:13,456 - text-KGE-Hybrid - INFO - --- Parameters are parsed for training ---
2022-07-09 12:49:14,239 - text-KGE-Hybrid - INFO -  Standard training starts: TextKGEHybridModel-labeling:TriplePrediction
2022-07-09 12:49:14,240 - text-KGE-Hybrid - INFO - TextKGEHybridModel(
  (loss): BCELoss()
  (entity_embeddings): Embedding(1503, 100)
  (relation_embeddings): Embedding(8, 100)
  (sentence_embeddings_train): Embedding(990, 2304)
  (sentence_embeddings_test): Embedding(939, 2304)
  (sentence_embeddings_valid): Embedding(50, 2304)
  (kg_classification_layer): Sequential(
    (0): Linear(in_features=300, out_features=2560, bias=True)
    (1): BatchNorm1d(2560, eps=1e-05, momentum=0.1, affine=True, track_running_stats=True)
    (2): ReLU()
    (3): Dropout(p=0.5, inplace=False)
    (4): Linear(in_features=2560, out_features=2560, bias=True)
  )
  (sentence_classification_layer): Sequential(
    (0): Linear(in_features=2304, out_features=2560, bias=True)
    (1): BatchNorm1d(2560, eps=1e-05, momentum=0.1, affine=True, track_running_stats=True)
    (2): ReLU()
    (3): Dropout(p=0.5, inplace=False)
    (4): Linear(in_features=2560, out_features=2560, bias=True)
  )
  (final_classification_layer): Sequential(
    (0): Linear(in_features=5120, out_features=2560, bias=True)
    (1): BatchNorm1d(2560, eps=1e-05, momentum=0.1, affine=True, track_running_stats=True)
    (2): ReLU()
    (3): Dropout(p=0.5, inplace=False)
    (4): Linear(in_features=2560, out_features=1, bias=True)
  )
)
2022-07-09 12:50:56,585 - text-KGE-Hybrid - INFO - Evaluation of Train data: TriplePrediction
2022-07-09 12:50:56,586 - text-KGE-Hybrid - INFO - Num of triples 990
2022-07-09 12:50:56,763 - text-KGE-Hybrid - INFO - 0.898989898989899
2022-07-09 12:50:56,770 - text-KGE-Hybrid - INFO -               precision    recall  f1-score   support

           0       0.89      0.90      0.90       490
…
2022-07-09 12:50:56,901 - text-KGE-Hybrid - INFO - --- Training is completed  ---
2022-07-09 12:50:56,902 - text-KGE-Hybrid - INFO - Store full model.
2022-07-09 12:50:57,149 - text-KGE-Hybrid - INFO - Stored data.
2022-07-09 12:50:57,150 - text-KGE-Hybrid - INFO - Total Runtime:1.728 minutes
2022-07-09 12:50:58,977 - text-KGE-Hybrid - INFO - --- Parameters are parsed for training ---
2022-07-09 12:50:59,776 - text-KGE-Hybrid - INFO -  Standard training starts: TextKGEHybridModel-labeling:TriplePrediction
2022-07-09 12:50:59,835 - text-KGE-Hybrid - INFO - TextKGEHybridModel(
  (loss): BCELoss()
  (entity_embeddings): Embedding(1584, 100)
  (relation_embeddings): Embedding(8, 100)
  (sentence_embeddings_train): Embedding(1025, 2304)
  (sentence_embeddings_test): Embedding(972, 2304)
  (sentence_embeddings_valid): Embedding(52, 2304)
  (kg_classification_layer): Sequential(
    (0): Linear(in_features=300, out_features=2560, bias=True)
    (1): BatchNorm1d(2560, eps=1e-05, momentum=0.1, affine=True, track_running_stats=True)
    (2): ReLU()
    (3): Dropout(p=0.5, inplace=False)
    (4): Linear(in_features=2560, out_features=2560, bias=True)
  )
  (sentence_classification_layer): Sequential(
    (0): Linear(in_features=2304, out_features=2560, bias=True)
    (1): BatchNorm1d(2560, eps=1e-05, momentum=0.1, affine=True, track_running_stats=True)
    (2): ReLU()
    (3): Dropout(p=0.5, inplace=False)
    (4): Linear(in_features=2560, out_features=2560, bias=True)
  )
  (final_classification_layer): Sequential(
    (0): Linear(in_features=5120, out_features=2560, bias=True)
    (1): BatchNorm1d(2560, eps=1e-05, momentum=0.1, affine=True, track_running_stats=True)
    (2): ReLU()
    (3): Dropout(p=0.5, inplace=False)
    (4): Linear(in_features=2560, out_features=1, bias=True)
  )
)
2022-07-09 12:52:40,002 - text-KGE-Hybrid - INFO - Evaluation of Train data: TriplePrediction
2022-07-09 12:52:40,003 - text-KGE-Hybrid - INFO - Num of triples 1025
2022-07-09 12:52:40,202 - text-KGE-Hybrid - INFO - 0.8536585365853658
2022-07-09 12:52:40,210 - text-KGE-Hybrid - INFO -               precision    recall  f1-score   support

           0       0.85      0.87      0.86       525
…
2022-07-09 12:52:40,341 - text-KGE-Hybrid - INFO - --- Training is completed  ---
2022-07-09 12:52:40,341 - text-KGE-Hybrid - INFO - Store full model.
2022-07-09 12:52:40,592 - text-KGE-Hybrid - INFO - Stored data.
2022-07-09 12:52:40,593 - text-KGE-Hybrid - INFO - Total Runtime:1.694 minutes
2022-07-09 12:52:42,550 - text-KGE-Hybrid - INFO - --- Parameters are parsed for training ---
2022-07-09 12:52:43,393 - text-KGE-Hybrid - INFO -  Standard training starts: TextKGEHybridModel-labeling:TriplePrediction
2022-07-09 12:52:43,394 - text-KGE-Hybrid - INFO - TextKGEHybridModel(
  (loss): BCELoss()
  (entity_embeddings): Embedding(1614, 100)
  (relation_embeddings): Embedding(8, 100)
  (sentence_embeddings_train): Embedding(1061, 2304)
  (sentence_embeddings_test): Embedding(979, 2304)
  (sentence_embeddings_valid): Embedding(52, 2304)
  (kg_classification_layer): Sequential(
    (0): Linear(in_features=300, out_features=2560, bias=True)
    (1): BatchNorm1d(2560, eps=1e-05, momentum=0.1, affine=True, track_running_stats=True)
    (2): ReLU()
    (3): Dropout(p=0.5, inplace=False)
    (4): Linear(in_features=2560, out_features=2560, bias=True)
  )
  (sentence_classification_layer): Sequential(
    (0): Linear(in_features=2304, out_features=2560, bias=True)
    (1): BatchNorm1d(2560, eps=1e-05, momentum=0.1, affine=True, track_running_stats=True)
    (2): ReLU()
    (3): Dropout(p=0.5, inplace=False)
    (4): Linear(in_features=2560, out_features=2560, bias=True)
  )
  (final_classification_layer): Sequential(
    (0): Linear(in_features=5120, out_features=2560, bias=True)
    (1): BatchNorm1d(2560, eps=1e-05, momentum=0.1, affine=True, track_running_stats=True)
    (2): ReLU()
    (3): Dropout(p=0.5, inplace=False)
    (4): Linear(in_features=2560, out_features=1, bias=True)
  )
)
2022-07-09 12:54:24,611 - text-KGE-Hybrid - INFO - Evaluation of Train data: TriplePrediction
2022-07-09 12:54:24,613 - text-KGE-Hybrid - INFO - Num of triples 1061
2022-07-09 12:54:24,785 - text-KGE-Hybrid - INFO - 0.9255419415645617
2022-07-09 12:54:24,792 - text-KGE-Hybrid - INFO -               precision    recall  f1-score   support

           0       0.89      0.99      0.93       561
…
2022-07-09 12:54:24,924 - text-KGE-Hybrid - INFO - --- Training is completed  ---
2022-07-09 12:54:24,925 - text-KGE-Hybrid - INFO - Store full model.
2022-07-09 12:54:25,180 - text-KGE-Hybrid - INFO - Stored data.
2022-07-09 12:54:25,181 - text-KGE-Hybrid - INFO - Total Runtime:1.711 minutes
2022-07-09 14:48:12,521 - text-KGE-Hybrid - INFO - --- Parameters are parsed for training ---
2022-07-09 14:48:13,370 - text-KGE-Hybrid - INFO -  Standard training starts: TextKGEHybridModel-labeling:TriplePrediction
2022-07-09 14:48:13,371 - text-KGE-Hybrid - INFO - TextKGEHybridModel(
  (loss): BCELoss()
  (entity_embeddings): Embedding(1707, 100)
  (relation_embeddings): Embedding(8, 100)
  (sentence_embeddings_train): Embedding(1032, 2304)
  (sentence_embeddings_test): Embedding(947, 2304)
  (sentence_embeddings_valid): Embedding(50, 2304)
  (kg_classification_layer): Sequential(
    (0): Linear(in_features=300, out_features=2560, bias=True)
    (1): BatchNorm1d(2560, eps=1e-05, momentum=0.1, affine=True, track_running_stats=True)
    (2): ReLU()
    (3): Dropout(p=0.5, inplace=False)
    (4): Linear(in_features=2560, out_features=2560, bias=True)
  )
  (sentence_classification_layer): Sequential(
    (0): Linear(in_features=2304, out_features=2560, bias=True)
    (1): BatchNorm1d(2560, eps=1e-05, momentum=0.1, affine=True, track_running_stats=True)
    (2): ReLU()
    (3): Dropout(p=0.5, inplace=False)
    (4): Linear(in_features=2560, out_features=2560, bias=True)
  )
  (final_classification_layer): Sequential(
    (0): Linear(in_features=5120, out_features=2560, bias=True)
    (1): BatchNorm1d(2560, eps=1e-05, momentum=0.1, affine=True, track_running_stats=True)
    (2): ReLU()
    (3): Dropout(p=0.5, inplace=False)
    (4): Linear(in_features=2560, out_features=1, bias=True)
  )
)
2022-07-09 14:52:23,570 - text-KGE-Hybrid - INFO - Evaluation of Train data: TriplePrediction
2022-07-09 14:52:23,572 - text-KGE-Hybrid - INFO - Num of triples 1032
2022-07-09 14:52:23,739 - text-KGE-Hybrid - INFO - 0.997093023255814
2022-07-09 14:52:23,746 - text-KGE-Hybrid - INFO -               precision    recall  f1-score   support

           0       1.00      0.99      1.00       532
…
2022-07-09 14:52:23,879 - text-KGE-Hybrid - INFO - --- Training is completed  ---
2022-07-09 14:52:23,879 - text-KGE-Hybrid - INFO - Store full model.
2022-07-09 14:52:24,166 - text-KGE-Hybrid - INFO - Stored data.
2022-07-09 14:52:24,167 - text-KGE-Hybrid - INFO - Total Runtime:4.194 minutes
2022-07-09 14:52:26,014 - text-KGE-Hybrid - INFO - --- Parameters are parsed for training ---
2022-07-09 14:52:26,760 - text-KGE-Hybrid - INFO -  Standard training starts: TextKGEHybridModel-labeling:TriplePrediction
2022-07-09 14:52:26,761 - text-KGE-Hybrid - INFO - TextKGEHybridModel(
  (loss): BCELoss()
  (entity_embeddings): Embedding(1512, 100)
  (relation_embeddings): Embedding(8, 100)
  (sentence_embeddings_train): Embedding(999, 2304)
  (sentence_embeddings_test): Embedding(935, 2304)
  (sentence_embeddings_valid): Embedding(50, 2304)
  (kg_classification_layer): Sequential(
    (0): Linear(in_features=300, out_features=2560, bias=True)
    (1): BatchNorm1d(2560, eps=1e-05, momentum=0.1, affine=True, track_running_stats=True)
    (2): ReLU()
    (3): Dropout(p=0.5, inplace=False)
    (4): Linear(in_features=2560, out_features=2560, bias=True)
  )
  (sentence_classification_layer): Sequential(
    (0): Linear(in_features=2304, out_features=2560, bias=True)
    (1): BatchNorm1d(2560, eps=1e-05, momentum=0.1, affine=True, track_running_stats=True)
    (2): ReLU()
    (3): Dropout(p=0.5, inplace=False)
    (4): Linear(in_features=2560, out_features=2560, bias=True)
  )
  (final_classification_layer): Sequential(
    (0): Linear(in_features=5120, out_features=2560, bias=True)
    (1): BatchNorm1d(2560, eps=1e-05, momentum=0.1, affine=True, track_running_stats=True)
    (2): ReLU()
    (3): Dropout(p=0.5, inplace=False)
    (4): Linear(in_features=2560, out_features=1, bias=True)
  )
)
2022-07-09 14:56:33,965 - text-KGE-Hybrid - INFO - Evaluation of Train data: TriplePrediction
2022-07-09 14:56:33,966 - text-KGE-Hybrid - INFO - Num of triples 999
2022-07-09 14:56:34,126 - text-KGE-Hybrid - INFO - 0.8998998998998999
2022-07-09 14:56:34,133 - text-KGE-Hybrid - INFO -               precision    recall  f1-score   support

           0       0.88      0.93      0.90       499
…
2022-07-09 14:56:34,262 - text-KGE-Hybrid - INFO - --- Training is completed  ---
2022-07-09 14:56:34,263 - text-KGE-Hybrid - INFO - Store full model.
2022-07-09 14:56:34,516 - text-KGE-Hybrid - INFO - Stored data.
2022-07-09 14:56:34,517 - text-KGE-Hybrid - INFO - Total Runtime:4.142 minutes
2022-07-09 14:56:36,314 - text-KGE-Hybrid - INFO - --- Parameters are parsed for training ---
2022-07-09 14:56:37,063 - text-KGE-Hybrid - INFO -  Standard training starts: TextKGEHybridModel-labeling:TriplePrediction
2022-07-09 14:56:37,064 - text-KGE-Hybrid - INFO - TextKGEHybridModel(
  (loss): BCELoss()
  (entity_embeddings): Embedding(1519, 100)
  (relation_embeddings): Embedding(8, 100)
  (sentence_embeddings_train): Embedding(1000, 2304)
  (sentence_embeddings_test): Embedding(935, 2304)
  (sentence_embeddings_valid): Embedding(50, 2304)
  (kg_classification_layer): Sequential(
    (0): Linear(in_features=300, out_features=2560, bias=True)
    (1): BatchNorm1d(2560, eps=1e-05, momentum=0.1, affine=True, track_running_stats=True)
    (2): ReLU()
    (3): Dropout(p=0.5, inplace=False)
    (4): Linear(in_features=2560, out_features=2560, bias=True)
  )
  (sentence_classification_layer): Sequential(
    (0): Linear(in_features=2304, out_features=2560, bias=True)
    (1): BatchNorm1d(2560, eps=1e-05, momentum=0.1, affine=True, track_running_stats=True)
    (2): ReLU()
    (3): Dropout(p=0.5, inplace=False)
    (4): Linear(in_features=2560, out_features=2560, bias=True)
  )
  (final_classification_layer): Sequential(
    (0): Linear(in_features=5120, out_features=2560, bias=True)
    (1): BatchNorm1d(2560, eps=1e-05, momentum=0.1, affine=True, track_running_stats=True)
    (2): ReLU()
    (3): Dropout(p=0.5, inplace=False)
    (4): Linear(in_features=2560, out_features=1, bias=True)
  )
)
2022-07-09 15:01:11,809 - text-KGE-Hybrid - INFO - Evaluation of Train data: TriplePrediction
2022-07-09 15:01:11,811 - text-KGE-Hybrid - INFO - Num of triples 1000
2022-07-09 15:01:11,990 - text-KGE-Hybrid - INFO - 0.929
2022-07-09 15:01:11,997 - text-KGE-Hybrid - INFO -               precision    recall  f1-score   support

           0       0.90      0.96      0.93       500
…
