2022-07-09 13:52:10,067 - KGE-only - INFO - --- Parameters are parsed for training ---
2022-07-09 13:52:10,094 - KGE-only - INFO -  Standard training starts: KGEModel-labeling:TriplePrediction
2022-07-09 13:52:10,095 - KGE-only - INFO - KGEModel(
  (loss): BCELoss()
  (entity_embeddings): Embedding(1503, 100)
  (relation_embeddings): Embedding(8, 100)
  (shallom): Sequential(
    (0): Linear(in_features=300, out_features=100, bias=True)
    (1): Dropout(p=0.5, inplace=False)
    (2): BatchNorm1d(100, eps=1e-05, momentum=0.1, affine=True, track_running_stats=True)
    (3): Dropout(p=0.5, inplace=False)
    (4): ReLU(inplace=True)
    (5): Dropout(p=0.5, inplace=False)
    (6): Linear(in_features=100, out_features=1, bias=True)
  )
)
2022-07-09 13:55:29,982 - KGE-only - INFO - Evaluation of Train data: TriplePrediction
2022-07-09 13:55:29,984 - KGE-only - INFO - Num of triples 990
2022-07-09 13:55:29,991 - KGE-only - INFO - 0.6717171717171717
2022-07-09 13:55:29,999 - KGE-only - INFO -               precision    recall  f1-score   support

           0       0.78      0.47      0.59       490
…
weighted avg       0.62      0.60      0.58       939

2022-07-09 13:55:30,015 - KGE-only - INFO - --- Training is completed  ---
2022-07-09 13:55:30,016 - KGE-only - INFO - Store full model.
2022-07-09 13:55:30,093 - KGE-only - INFO - Stored data.
2022-07-09 13:55:30,094 - KGE-only - INFO - Total Runtime:3.334 minutes
2022-07-09 13:55:30,843 - KGE-only - INFO - --- Parameters are parsed for training ---
2022-07-09 13:55:30,872 - KGE-only - INFO -  Standard training starts: KGEModel-labeling:TriplePrediction
2022-07-09 13:55:30,873 - KGE-only - INFO - KGEModel(
  (loss): BCELoss()
  (entity_embeddings): Embedding(1584, 100)
  (relation_embeddings): Embedding(8, 100)
  (shallom): Sequential(
    (0): Linear(in_features=300, out_features=100, bias=True)
    (1): Dropout(p=0.5, inplace=False)
    (2): BatchNorm1d(100, eps=1e-05, momentum=0.1, affine=True, track_running_stats=True)
    (3): Dropout(p=0.5, inplace=False)
    (4): ReLU(inplace=True)
    (5): Dropout(p=0.5, inplace=False)
    (6): Linear(in_features=100, out_features=1, bias=True)
  )
)
2022-07-09 13:58:55,428 - KGE-only - INFO - Evaluation of Train data: TriplePrediction
2022-07-09 13:58:55,430 - KGE-only - INFO - Num of triples 1025
2022-07-09 13:58:55,437 - KGE-only - INFO - 0.6419512195121951
2022-07-09 13:58:55,444 - KGE-only - INFO -               precision    recall  f1-score   support

           0       0.79      0.41      0.54       525
…
weighted avg       0.65      0.61      0.58       972

2022-07-09 13:58:55,459 - KGE-only - INFO - --- Training is completed  ---
2022-07-09 13:58:55,460 - KGE-only - INFO - Store full model.
2022-07-09 13:58:55,533 - KGE-only - INFO - Stored data.
2022-07-09 13:58:55,534 - KGE-only - INFO - Total Runtime:3.412 minutes
2022-07-09 13:58:56,441 - KGE-only - INFO - --- Parameters are parsed for training ---
2022-07-09 13:58:56,469 - KGE-only - INFO -  Standard training starts: KGEModel-labeling:TriplePrediction
2022-07-09 13:58:56,471 - KGE-only - INFO - KGEModel(
  (loss): BCELoss()
  (entity_embeddings): Embedding(1614, 100)
  (relation_embeddings): Embedding(8, 100)
  (shallom): Sequential(
    (0): Linear(in_features=300, out_features=100, bias=True)
    (1): Dropout(p=0.5, inplace=False)
    (2): BatchNorm1d(100, eps=1e-05, momentum=0.1, affine=True, track_running_stats=True)
    (3): Dropout(p=0.5, inplace=False)
    (4): ReLU(inplace=True)
    (5): Dropout(p=0.5, inplace=False)
    (6): Linear(in_features=100, out_features=1, bias=True)
  )
)
2022-07-09 14:02:17,166 - KGE-only - INFO - Evaluation of Train data: TriplePrediction
2022-07-09 14:02:17,167 - KGE-only - INFO - Num of triples 1061
2022-07-09 14:02:17,175 - KGE-only - INFO - 0.9189443920829407
2022-07-09 14:02:17,182 - KGE-only - INFO -               precision    recall  f1-score   support

           0       0.98      0.87      0.92       561
…
