2022-07-09 13:06:54,720 - KGE-path-Hybrid - INFO - --- Parameters are parsed for training ---
2022-07-09 13:06:54,929 - KGE-path-Hybrid - INFO -  Standard training starts: PathKGEHybridModel-labeling:TriplePrediction
2022-07-09 13:06:54,930 - KGE-path-Hybrid - INFO - PathKGEHybridModel(
  (loss): BCELoss()
  (entity_embeddings): Embedding(1512, 100)
  (relation_embeddings): Embedding(8, 100)
  (copaal_veracity_score_train): Embedding(999, 1)
  (copaal_veracity_score_test): Embedding(935, 1)
  (copaal_veracity_score_valid): Embedding(50, 1)
  (kg_classification_layer): Sequential(
    (0): Linear(in_features=300, out_features=2560, bias=True)
    (1): BatchNorm1d(2560, eps=1e-05, momentum=0.1, affine=True, track_running_stats=True)
    (2): ReLU()
    (3): Dropout(p=0.5, inplace=False)
    (4): Linear(in_features=2560, out_features=2560, bias=True)
  )
  (path_classification_layer): Sequential(
    (0): Linear(in_features=1, out_features=2560, bias=True)
    (1): BatchNorm1d(2560, eps=1e-05, momentum=0.1, affine=True, track_running_stats=True)
    (2): ReLU()
    (3): Dropout(p=0.5, inplace=False)
    (4): Linear(in_features=2560, out_features=2560, bias=True)
  )
  (final_classification_layer): Sequential(
    (0): Linear(in_features=5120, out_features=2560, bias=True)
    (1): BatchNorm1d(2560, eps=1e-05, momentum=0.1, affine=True, track_running_stats=True)
    (2): ReLU()
    (3): Dropout(p=0.5, inplace=False)
    (4): Linear(in_features=2560, out_features=1, bias=True)
  )
)
2022-07-09 13:08:33,851 - KGE-path-Hybrid - INFO - Evaluation of Train data: TriplePrediction
2022-07-09 13:08:33,852 - KGE-path-Hybrid - INFO - Num of triples 999
2022-07-09 13:08:33,973 - KGE-path-Hybrid - INFO - 0.8578578578578578
2022-07-09 13:08:33,980 - KGE-path-Hybrid - INFO -               precision    recall  f1-score   support

           0       0.85      0.86      0.86       499
…
2022-07-09 13:08:34,087 - KGE-path-Hybrid - INFO - --- Training is completed  ---
2022-07-09 13:08:34,087 - KGE-path-Hybrid - INFO - Store full model.
2022-07-09 13:08:34,302 - KGE-path-Hybrid - INFO - Stored data.
2022-07-09 13:08:34,303 - KGE-path-Hybrid - INFO - Total Runtime:1.660 minutes
2022-07-09 13:08:36,007 - KGE-path-Hybrid - INFO - --- Parameters are parsed for training ---
2022-07-09 13:08:36,219 - KGE-path-Hybrid - INFO -  Standard training starts: PathKGEHybridModel-labeling:TriplePrediction
2022-07-09 13:08:36,220 - KGE-path-Hybrid - INFO - PathKGEHybridModel(
  (loss): BCELoss()
  (entity_embeddings): Embedding(1519, 100)
  (relation_embeddings): Embedding(8, 100)
  (copaal_veracity_score_train): Embedding(1000, 1)
  (copaal_veracity_score_test): Embedding(935, 1)
  (copaal_veracity_score_valid): Embedding(50, 1)
  (kg_classification_layer): Sequential(
    (0): Linear(in_features=300, out_features=2560, bias=True)
    (1): BatchNorm1d(2560, eps=1e-05, momentum=0.1, affine=True, track_running_stats=True)
    (2): ReLU()
    (3): Dropout(p=0.5, inplace=False)
    (4): Linear(in_features=2560, out_features=2560, bias=True)
  )
  (path_classification_layer): Sequential(
    (0): Linear(in_features=1, out_features=2560, bias=True)
    (1): BatchNorm1d(2560, eps=1e-05, momentum=0.1, affine=True, track_running_stats=True)
    (2): ReLU()
    (3): Dropout(p=0.5, inplace=False)
    (4): Linear(in_features=2560, out_features=2560, bias=True)
  )
  (final_classification_layer): Sequential(
    (0): Linear(in_features=5120, out_features=2560, bias=True)
    (1): BatchNorm1d(2560, eps=1e-05, momentum=0.1, affine=True, track_running_stats=True)
    (2): ReLU()
    (3): Dropout(p=0.5, inplace=False)
    (4): Linear(in_features=2560, out_features=1, bias=True)
  )
)
2022-07-09 13:10:15,502 - KGE-path-Hybrid - INFO - Evaluation of Train data: TriplePrediction
2022-07-09 13:10:15,503 - KGE-path-Hybrid - INFO - Num of triples 1000
2022-07-09 13:10:15,613 - KGE-path-Hybrid - INFO - 0.857
2022-07-09 13:10:15,620 - KGE-path-Hybrid - INFO -               precision    recall  f1-score   support

           0       0.85      0.87      0.86       500
…
2022-07-09 13:10:15,719 - KGE-path-Hybrid - INFO - --- Training is completed  ---
2022-07-09 13:10:15,719 - KGE-path-Hybrid - INFO - Store full model.
2022-07-09 13:10:15,952 - KGE-path-Hybrid - INFO - Stored data.
2022-07-09 13:10:15,953 - KGE-path-Hybrid - INFO - Total Runtime:1.666 minutes
2022-07-09 13:10:17,735 - KGE-path-Hybrid - INFO - --- Parameters are parsed for training ---
2022-07-09 13:10:17,945 - KGE-path-Hybrid - INFO -  Standard training starts: PathKGEHybridModel-labeling:TriplePrediction
2022-07-09 13:10:17,946 - KGE-path-Hybrid - INFO - PathKGEHybridModel(
  (loss): BCELoss()
  (entity_embeddings): Embedding(1503, 100)
  (relation_embeddings): Embedding(8, 100)
  (copaal_veracity_score_train): Embedding(990, 1)
  (copaal_veracity_score_test): Embedding(939, 1)
  (copaal_veracity_score_valid): Embedding(50, 1)
  (kg_classification_layer): Sequential(
    (0): Linear(in_features=300, out_features=2560, bias=True)
    (1): BatchNorm1d(2560, eps=1e-05, momentum=0.1, affine=True, track_running_stats=True)
    (2): ReLU()
    (3): Dropout(p=0.5, inplace=False)
    (4): Linear(in_features=2560, out_features=2560, bias=True)
  )
  (path_classification_layer): Sequential(
    (0): Linear(in_features=1, out_features=2560, bias=True)
    (1): BatchNorm1d(2560, eps=1e-05, momentum=0.1, affine=True, track_running_stats=True)
    (2): ReLU()
    (3): Dropout(p=0.5, inplace=False)
    (4): Linear(in_features=2560, out_features=2560, bias=True)
  )
  (final_classification_layer): Sequential(
    (0): Linear(in_features=5120, out_features=2560, bias=True)
    (1): BatchNorm1d(2560, eps=1e-05, momentum=0.1, affine=True, track_running_stats=True)
    (2): ReLU()
    (3): Dropout(p=0.5, inplace=False)
    (4): Linear(in_features=2560, out_features=1, bias=True)
  )
)
2022-07-09 13:12:01,768 - KGE-path-Hybrid - INFO - Evaluation of Train data: TriplePrediction
2022-07-09 13:12:01,770 - KGE-path-Hybrid - INFO - Num of triples 990
2022-07-09 13:12:01,884 - KGE-path-Hybrid - INFO - 0.8656565656565657
2022-07-09 13:12:01,893 - KGE-path-Hybrid - INFO -               precision    recall  f1-score   support

           0       0.98      0.75      0.85       490
…
2022-07-09 13:12:02,001 - KGE-path-Hybrid - INFO - --- Training is completed  ---
2022-07-09 13:12:02,002 - KGE-path-Hybrid - INFO - Store full model.
2022-07-09 13:12:02,251 - KGE-path-Hybrid - INFO - Stored data.
2022-07-09 13:12:02,252 - KGE-path-Hybrid - INFO - Total Runtime:1.742 minutes
2022-07-09 13:12:04,295 - KGE-path-Hybrid - INFO - --- Parameters are parsed for training ---
2022-07-09 13:12:04,516 - KGE-path-Hybrid - INFO -  Standard training starts: PathKGEHybridModel-labeling:TriplePrediction
2022-07-09 13:12:04,517 - KGE-path-Hybrid - INFO - PathKGEHybridModel(
  (loss): BCELoss()
  (entity_embeddings): Embedding(1584, 100)
  (relation_embeddings): Embedding(8, 100)
  (copaal_veracity_score_train): Embedding(1025, 1)
  (copaal_veracity_score_test): Embedding(972, 1)
  (copaal_veracity_score_valid): Embedding(52, 1)
  (kg_classification_layer): Sequential(
    (0): Linear(in_features=300, out_features=2560, bias=True)
    (1): BatchNorm1d(2560, eps=1e-05, momentum=0.1, affine=True, track_running_stats=True)
    (2): ReLU()
    (3): Dropout(p=0.5, inplace=False)
    (4): Linear(in_features=2560, out_features=2560, bias=True)
  )
  (path_classification_layer): Sequential(
    (0): Linear(in_features=1, out_features=2560, bias=True)
    (1): BatchNorm1d(2560, eps=1e-05, momentum=0.1, affine=True, track_running_stats=True)
    (2): ReLU()
    (3): Dropout(p=0.5, inplace=False)
    (4): Linear(in_features=2560, out_features=2560, bias=True)
  )
  (final_classification_layer): Sequential(
    (0): Linear(in_features=5120, out_features=2560, bias=True)
    (1): BatchNorm1d(2560, eps=1e-05, momentum=0.1, affine=True, track_running_stats=True)
    (2): ReLU()
    (3): Dropout(p=0.5, inplace=False)
    (4): Linear(in_features=2560, out_features=1, bias=True)
  )
)
2022-07-09 13:13:43,601 - KGE-path-Hybrid - INFO - Evaluation of Train data: TriplePrediction
2022-07-09 13:13:43,603 - KGE-path-Hybrid - INFO - Num of triples 1025
2022-07-09 13:13:43,727 - KGE-path-Hybrid - INFO - 0.8234146341463414
2022-07-09 13:13:43,734 - KGE-path-Hybrid - INFO -               precision    recall  f1-score   support

           0       0.96      0.68      0.80       525
…
2022-07-09 13:13:43,847 - KGE-path-Hybrid - INFO - --- Training is completed  ---
2022-07-09 13:13:43,848 - KGE-path-Hybrid - INFO - Store full model.
2022-07-09 13:13:44,082 - KGE-path-Hybrid - INFO - Stored data.
2022-07-09 13:13:44,083 - KGE-path-Hybrid - INFO - Total Runtime:1.663 minutes
2022-07-09 13:13:46,003 - KGE-path-Hybrid - INFO - --- Parameters are parsed for training ---
2022-07-09 13:13:46,225 - KGE-path-Hybrid - INFO -  Standard training starts: PathKGEHybridModel-labeling:TriplePrediction
2022-07-09 13:13:46,226 - KGE-path-Hybrid - INFO - PathKGEHybridModel(
  (loss): BCELoss()
  (entity_embeddings): Embedding(1614, 100)
  (relation_embeddings): Embedding(8, 100)
  (copaal_veracity_score_train): Embedding(1061, 1)
  (copaal_veracity_score_test): Embedding(979, 1)
  (copaal_veracity_score_valid): Embedding(52, 1)
  (kg_classification_layer): Sequential(
    (0): Linear(in_features=300, out_features=2560, bias=True)
    (1): BatchNorm1d(2560, eps=1e-05, momentum=0.1, affine=True, track_running_stats=True)
    (2): ReLU()
    (3): Dropout(p=0.5, inplace=False)
    (4): Linear(in_features=2560, out_features=2560, bias=True)
  )
  (path_classification_layer): Sequential(
    (0): Linear(in_features=1, out_features=2560, bias=True)
    (1): BatchNorm1d(2560, eps=1e-05, momentum=0.1, affine=True, track_running_stats=True)
    (2): ReLU()
    (3): Dropout(p=0.5, inplace=False)
    (4): Linear(in_features=2560, out_features=2560, bias=True)
  )
  (final_classification_layer): Sequential(
    (0): Linear(in_features=5120, out_features=2560, bias=True)
    (1): BatchNorm1d(2560, eps=1e-05, momentum=0.1, affine=True, track_running_stats=True)
    (2): ReLU()
    (3): Dropout(p=0.5, inplace=False)
    (4): Linear(in_features=2560, out_features=1, bias=True)
  )
)
2022-07-09 13:15:23,632 - KGE-path-Hybrid - INFO - Evaluation of Train data: TriplePrediction
2022-07-09 13:15:23,633 - KGE-path-Hybrid - INFO - Num of triples 1061
2022-07-09 13:15:23,758 - KGE-path-Hybrid - INFO - 0.9736098020735156
2022-07-09 13:15:23,765 - KGE-path-Hybrid - INFO -               precision    recall  f1-score   support

           0       0.98      0.97      0.97       561
…
2022-07-09 13:15:23,879 - KGE-path-Hybrid - INFO - --- Training is completed  ---
2022-07-09 13:15:23,880 - KGE-path-Hybrid - INFO - Store full model.
2022-07-09 13:15:24,098 - KGE-path-Hybrid - INFO - Stored data.
2022-07-09 13:15:24,099 - KGE-path-Hybrid - INFO - Total Runtime:1.635 minutes
2022-07-09 15:40:30,589 - KGE-path-Hybrid - INFO - --- Parameters are parsed for training ---
2022-07-09 15:40:30,809 - KGE-path-Hybrid - INFO -  Standard training starts: PathKGEHybridModel-labeling:TriplePrediction
2022-07-09 15:40:30,810 - KGE-path-Hybrid - INFO - PathKGEHybridModel(
  (loss): BCELoss()
  (entity_embeddings): Embedding(1707, 100)
  (relation_embeddings): Embedding(8, 100)
  (copaal_veracity_score_train): Embedding(1032, 1)
  (copaal_veracity_score_test): Embedding(947, 1)
  (copaal_veracity_score_valid): Embedding(50, 1)
  (kg_classification_layer): Sequential(
    (0): Linear(in_features=300, out_features=2560, bias=True)
    (1): BatchNorm1d(2560, eps=1e-05, momentum=0.1, affine=True, track_running_stats=True)
    (2): ReLU()
    (3): Dropout(p=0.5, inplace=False)
    (4): Linear(in_features=2560, out_features=2560, bias=True)
  )
  (path_classification_layer): Sequential(
    (0): Linear(in_features=1, out_features=2560, bias=True)
    (1): BatchNorm1d(2560, eps=1e-05, momentum=0.1, affine=True, track_running_stats=True)
    (2): ReLU()
    (3): Dropout(p=0.5, inplace=False)
    (4): Linear(in_features=2560, out_features=2560, bias=True)
  )
  (final_classification_layer): Sequential(
    (0): Linear(in_features=5120, out_features=2560, bias=True)
    (1): BatchNorm1d(2560, eps=1e-05, momentum=0.1, affine=True, track_running_stats=True)
    (2): ReLU()
    (3): Dropout(p=0.5, inplace=False)
    (4): Linear(in_features=2560, out_features=1, bias=True)
  )
)
2022-07-09 15:44:28,850 - KGE-path-Hybrid - INFO - Evaluation of Train data: TriplePrediction
2022-07-09 15:44:28,851 - KGE-path-Hybrid - INFO - Num of triples 1032
2022-07-09 15:44:28,986 - KGE-path-Hybrid - INFO - 0.999031007751938
2022-07-09 15:44:28,994 - KGE-path-Hybrid - INFO -               precision    recall  f1-score   support

           0       1.00      1.00      1.00       532
…
