2022-07-09 15:48:31,101 - KGE-path-Hybrid - INFO - --- Parameters are parsed for training ---
2022-07-09 15:48:31,314 - KGE-path-Hybrid - INFO -  Standard training starts: PathKGEHybridModel-labeling:TriplePrediction
2022-07-09 15:48:31,315 - KGE-path-Hybrid - INFO - PathKGEHybridModel(
  (loss): BCELoss()
  (entity_embeddings): Embedding(1519, 100)
  (relation_embeddings): Embedding(8, 100)
  (copaal_veracity_score_train): Embedding(1000, 1)
  (copaal_veracity_score_test): Embedding(935, 1)
  (copaal_veracity_score_valid): Embedding(50, 1)
  (kg_classification_layer): Sequential(
    (0): Linear(in_features=300, out_features=2560, bias=True)
    (1): BatchNorm1d(2560, eps=1e-05, momentum=0.1, affine=True, track_running_stats=True)
    (2): ReLU()
    (3): Dropout(p=0.5, inplace=False)
    (4): Linear(in_features=2560, out_features=2560, bias=True)
  )
  (path_classification_layer): Sequential(
    (0): Linear(in_features=1, out_features=2560, bias=True)
    (1): BatchNorm1d(2560, eps=1e-05, momentum=0.1, affine=True, track_running_stats=True)
    (2): ReLU()
    (3): Dropout(p=0.5, inplace=False)
    (4): Linear(in_features=2560, out_features=2560, bias=True)
  )
  (final_classification_layer): Sequential(
    (0): Linear(in_features=5120, out_features=2560, bias=True)
    (1): BatchNorm1d(2560, eps=1e-05, momentum=0.1, affine=True, track_running_stats=True)
    (2): ReLU()
    (3): Dropout(p=0.5, inplace=False)
    (4): Linear(in_features=2560, out_features=1, bias=True)
  )
)
2022-07-09 15:52:46,438 - KGE-path-Hybrid - INFO - Evaluation of Train data: TriplePrediction
2022-07-09 15:52:46,439 - KGE-path-Hybrid - INFO - Num of triples 1000
2022-07-09 15:52:46,565 - KGE-path-Hybrid - INFO - 0.899
2022-07-09 15:52:46,573 - KGE-path-Hybrid - INFO -               precision    recall  f1-score   support

           0       0.93      0.87      0.90       500
…
2022-07-09 15:52:46,672 - KGE-path-Hybrid - INFO - --- Training is completed  ---
2022-07-09 15:52:46,673 - KGE-path-Hybrid - INFO - Store full model.
2022-07-09 15:52:46,898 - KGE-path-Hybrid - INFO - Stored data.
2022-07-09 15:52:46,899 - KGE-path-Hybrid - INFO - Total Runtime:4.263 minutes
2022-07-09 15:52:48,667 - KGE-path-Hybrid - INFO - --- Parameters are parsed for training ---
2022-07-09 15:52:48,888 - KGE-path-Hybrid - INFO -  Standard training starts: PathKGEHybridModel-labeling:TriplePrediction
2022-07-09 15:52:48,889 - KGE-path-Hybrid - INFO - PathKGEHybridModel(
  (loss): BCELoss()
  (entity_embeddings): Embedding(1503, 100)
  (relation_embeddings): Embedding(8, 100)
  (copaal_veracity_score_train): Embedding(990, 1)
  (copaal_veracity_score_test): Embedding(939, 1)
  (copaal_veracity_score_valid): Embedding(50, 1)
  (kg_classification_layer): Sequential(
    (0): Linear(in_features=300, out_features=2560, bias=True)
    (1): BatchNorm1d(2560, eps=1e-05, momentum=0.1, affine=True, track_running_stats=True)
    (2): ReLU()
    (3): Dropout(p=0.5, inplace=False)
    (4): Linear(in_features=2560, out_features=2560, bias=True)
  )
  (path_classification_layer): Sequential(
    (0): Linear(in_features=1, out_features=2560, bias=True)
    (1): BatchNorm1d(2560, eps=1e-05, momentum=0.1, affine=True, track_running_stats=True)
    (2): ReLU()
    (3): Dropout(p=0.5, inplace=False)
    (4): Linear(in_features=2560, out_features=2560, bias=True)
  )
  (final_classification_layer): Sequential(
    (0): Linear(in_features=5120, out_features=2560, bias=True)
    (1): BatchNorm1d(2560, eps=1e-05, momentum=0.1, affine=True, track_running_stats=True)
    (2): ReLU()
    (3): Dropout(p=0.5, inplace=False)
    (4): Linear(in_features=2560, out_features=1, bias=True)
  )
)
2022-07-09 15:56:46,424 - KGE-path-Hybrid - INFO - Evaluation of Train data: TriplePrediction
2022-07-09 15:56:46,426 - KGE-path-Hybrid - INFO - Num of triples 990
2022-07-09 15:56:46,539 - KGE-path-Hybrid - INFO - 0.9272727272727272
2022-07-09 15:56:46,546 - KGE-path-Hybrid - INFO -               precision    recall  f1-score   support

           0       0.94      0.91      0.93       490
…
2022-07-09 15:56:46,644 - KGE-path-Hybrid - INFO - --- Training is completed  ---
2022-07-09 15:56:46,645 - KGE-path-Hybrid - INFO - Store full model.
2022-07-09 15:56:46,876 - KGE-path-Hybrid - INFO - Stored data.
2022-07-09 15:56:46,877 - KGE-path-Hybrid - INFO - Total Runtime:3.970 minutes
2022-07-09 15:56:48,665 - KGE-path-Hybrid - INFO - --- Parameters are parsed for training ---
2022-07-09 15:56:48,879 - KGE-path-Hybrid - INFO -  Standard training starts: PathKGEHybridModel-labeling:TriplePrediction
2022-07-09 15:56:48,881 - KGE-path-Hybrid - INFO - PathKGEHybridModel(
  (loss): BCELoss()
  (entity_embeddings): Embedding(1584, 100)
  (relation_embeddings): Embedding(8, 100)
  (copaal_veracity_score_train): Embedding(1025, 1)
  (copaal_veracity_score_test): Embedding(972, 1)
  (copaal_veracity_score_valid): Embedding(52, 1)
  (kg_classification_layer): Sequential(
    (0): Linear(in_features=300, out_features=2560, bias=True)
    (1): BatchNorm1d(2560, eps=1e-05, momentum=0.1, affine=True, track_running_stats=True)
    (2): ReLU()
    (3): Dropout(p=0.5, inplace=False)
    (4): Linear(in_features=2560, out_features=2560, bias=True)
  )
  (path_classification_layer): Sequential(
    (0): Linear(in_features=1, out_features=2560, bias=True)
    (1): BatchNorm1d(2560, eps=1e-05, momentum=0.1, affine=True, track_running_stats=True)
    (2): ReLU()
    (3): Dropout(p=0.5, inplace=False)
    (4): Linear(in_features=2560, out_features=2560, bias=True)
  )
  (final_classification_layer): Sequential(
    (0): Linear(in_features=5120, out_features=2560, bias=True)
    (1): BatchNorm1d(2560, eps=1e-05, momentum=0.1, affine=True, track_running_stats=True)
    (2): ReLU()
    (3): Dropout(p=0.5, inplace=False)
    (4): Linear(in_features=2560, out_features=1, bias=True)
  )
)
2022-07-09 16:00:50,220 - KGE-path-Hybrid - INFO - Evaluation of Train data: TriplePrediction
2022-07-09 16:00:50,222 - KGE-path-Hybrid - INFO - Num of triples 1025
2022-07-09 16:00:50,341 - KGE-path-Hybrid - INFO - 0.8526829268292683
2022-07-09 16:00:50,348 - KGE-path-Hybrid - INFO -               precision    recall  f1-score   support

           0       0.96      0.74      0.84       525
…
2022-07-09 16:00:50,448 - KGE-path-Hybrid - INFO - --- Training is completed  ---
2022-07-09 16:00:50,449 - KGE-path-Hybrid - INFO - Store full model.
2022-07-09 16:00:50,678 - KGE-path-Hybrid - INFO - Stored data.
2022-07-09 16:00:50,679 - KGE-path-Hybrid - INFO - Total Runtime:4.034 minutes
2022-07-09 16:00:52,582 - KGE-path-Hybrid - INFO - --- Parameters are parsed for training ---
2022-07-09 16:00:52,795 - KGE-path-Hybrid - INFO -  Standard training starts: PathKGEHybridModel-labeling:TriplePrediction
2022-07-09 16:00:52,797 - KGE-path-Hybrid - INFO - PathKGEHybridModel(
  (loss): BCELoss()
  (entity_embeddings): Embedding(1614, 100)
  (relation_embeddings): Embedding(8, 100)
  (copaal_veracity_score_train): Embedding(1061, 1)
  (copaal_veracity_score_test): Embedding(979, 1)
  (copaal_veracity_score_valid): Embedding(52, 1)
  (kg_classification_layer): Sequential(
    (0): Linear(in_features=300, out_features=2560, bias=True)
    (1): BatchNorm1d(2560, eps=1e-05, momentum=0.1, affine=True, track_running_stats=True)
    (2): ReLU()
    (3): Dropout(p=0.5, inplace=False)
    (4): Linear(in_features=2560, out_features=2560, bias=True)
  )
  (path_classification_layer): Sequential(
    (0): Linear(in_features=1, out_features=2560, bias=True)
    (1): BatchNorm1d(2560, eps=1e-05, momentum=0.1, affine=True, track_running_stats=True)
    (2): ReLU()
    (3): Dropout(p=0.5, inplace=False)
    (4): Linear(in_features=2560, out_features=2560, bias=True)
  )
  (final_classification_layer): Sequential(
    (0): Linear(in_features=5120, out_features=2560, bias=True)
    (1): BatchNorm1d(2560, eps=1e-05, momentum=0.1, affine=True, track_running_stats=True)
    (2): ReLU()
    (3): Dropout(p=0.5, inplace=False)
    (4): Linear(in_features=2560, out_features=1, bias=True)
  )
)
2022-07-09 16:04:58,053 - KGE-path-Hybrid - INFO - Evaluation of Train data: TriplePrediction
2022-07-09 16:04:58,055 - KGE-path-Hybrid - INFO - Num of triples 1061
2022-07-09 16:04:58,191 - KGE-path-Hybrid - INFO - 0.9858623939679547
2022-07-09 16:04:58,198 - KGE-path-Hybrid - INFO -               precision    recall  f1-score   support

           0       0.99      0.99      0.99       561
…
