2022-07-09 14:36:56,982 - path-only - INFO - --- Parameters are parsed for training ---
2022-07-09 14:36:57,080 - path-only - INFO -  Standard training starts: PathModel-labeling:TriplePrediction
2022-07-09 14:36:57,081 - path-only - INFO - PathModel(
  (loss): BCELoss()
  (copaal_veracity_score_train): Embedding(990, 1)
  (copaal_veracity_score_test): Embedding(939, 1)
  (copaal_veracity_score_valid): Embedding(50, 1)
  (path_classification_layer): Sequential(
    (0): Linear(in_features=1, out_features=2560, bias=True)
    (1): BatchNorm1d(2560, eps=1e-05, momentum=0.1, affine=True, track_running_stats=True)
    (2): ReLU()
    (3): Dropout(p=0.5, inplace=False)
    (4): Linear(in_features=2560, out_features=2560, bias=True)
  )
  (final_classification_layer): Sequential(
    (0): Linear(in_features=2560, out_features=2560, bias=True)
    (1): BatchNorm1d(2560, eps=1e-05, momentum=0.1, affine=True, track_running_stats=True)
    (2): ReLU()
    (3): Dropout(p=0.5, inplace=False)
    (4): Linear(in_features=2560, out_features=1, bias=True)
  )
)
2022-07-09 14:40:37,139 - path-only - INFO - Evaluation of Train data: TriplePrediction
2022-07-09 14:40:37,140 - path-only - INFO - Num of triples 990
2022-07-09 14:40:37,212 - path-only - INFO - 0.6767676767676768
2022-07-09 14:40:37,219 - path-only - INFO -               precision    recall  f1-score   support

           0       0.61      0.96      0.75       490
…
weighted avg       0.69      0.64      0.61       939

2022-07-09 14:40:37,279 - path-only - INFO - --- Training is completed  ---
2022-07-09 14:40:37,280 - path-only - INFO - Store full model.
2022-07-09 14:40:37,444 - path-only - INFO - Stored data.
2022-07-09 14:40:37,445 - path-only - INFO - Total Runtime:3.674 minutes
2022-07-09 14:40:39,191 - path-only - INFO - --- Parameters are parsed for training ---
2022-07-09 14:40:39,290 - path-only - INFO -  Standard training starts: PathModel-labeling:TriplePrediction
2022-07-09 14:40:39,291 - path-only - INFO - PathModel(
  (loss): BCELoss()
  (copaal_veracity_score_train): Embedding(1025, 1)
  (copaal_veracity_score_test): Embedding(972, 1)
  (copaal_veracity_score_valid): Embedding(52, 1)
  (path_classification_layer): Sequential(
    (0): Linear(in_features=1, out_features=2560, bias=True)
    (1): BatchNorm1d(2560, eps=1e-05, momentum=0.1, affine=True, track_running_stats=True)
    (2): ReLU()
    (3): Dropout(p=0.5, inplace=False)
    (4): Linear(in_features=2560, out_features=2560, bias=True)
  )
  (final_classification_layer): Sequential(
    (0): Linear(in_features=2560, out_features=2560, bias=True)
    (1): BatchNorm1d(2560, eps=1e-05, momentum=0.1, affine=True, track_running_stats=True)
    (2): ReLU()
    (3): Dropout(p=0.5, inplace=False)
    (4): Linear(in_features=2560, out_features=1, bias=True)
  )
)
2022-07-09 14:44:18,462 - path-only - INFO - Evaluation of Train data: TriplePrediction
2022-07-09 14:44:18,463 - path-only - INFO - Num of triples 1025
2022-07-09 14:44:18,528 - path-only - INFO - 0.6517073170731708
2022-07-09 14:44:18,536 - path-only - INFO -               precision    recall  f1-score   support

           0       0.61      0.88      0.72       525
…
weighted avg       0.63      0.61      0.59       972

2022-07-09 14:44:18,598 - path-only - INFO - --- Training is completed  ---
2022-07-09 14:44:18,599 - path-only - INFO - Store full model.
2022-07-09 14:44:18,756 - path-only - INFO - Stored data.
2022-07-09 14:44:18,758 - path-only - INFO - Total Runtime:3.659 minutes
2022-07-09 14:44:20,638 - path-only - INFO - --- Parameters are parsed for training ---
2022-07-09 14:44:20,737 - path-only - INFO -  Standard training starts: PathModel-labeling:TriplePrediction
2022-07-09 14:44:20,739 - path-only - INFO - PathModel(
  (loss): BCELoss()
  (copaal_veracity_score_train): Embedding(1061, 1)
  (copaal_veracity_score_test): Embedding(979, 1)
  (copaal_veracity_score_valid): Embedding(52, 1)
  (path_classification_layer): Sequential(
    (0): Linear(in_features=1, out_features=2560, bias=True)
    (1): BatchNorm1d(2560, eps=1e-05, momentum=0.1, affine=True, track_running_stats=True)
    (2): ReLU()
    (3): Dropout(p=0.5, inplace=False)
    (4): Linear(in_features=2560, out_features=2560, bias=True)
  )
  (final_classification_layer): Sequential(
    (0): Linear(in_features=2560, out_features=2560, bias=True)
    (1): BatchNorm1d(2560, eps=1e-05, momentum=0.1, affine=True, track_running_stats=True)
    (2): ReLU()
    (3): Dropout(p=0.5, inplace=False)
    (4): Linear(in_features=2560, out_features=1, bias=True)
  )
)
2022-07-09 14:48:10,192 - path-only - INFO - Evaluation of Train data: TriplePrediction
2022-07-09 14:48:10,193 - path-only - INFO - Num of triples 1061
2022-07-09 14:48:10,258 - path-only - INFO - 0.706880301602262
2022-07-09 14:48:10,265 - path-only - INFO -               precision    recall  f1-score   support

           0       0.65      0.97      0.78       561
…
