2022-07-09 11:01:25,528 - KGE-only - INFO - --- Parameters are parsed for training ---
2022-07-09 11:01:25,555 - KGE-only - INFO -  Standard training starts: KGEModel-labeling:TriplePrediction
2022-07-09 11:01:25,555 - KGE-only - INFO - KGEModel(
  (loss): BCELoss()
  (entity_embeddings): Embedding(1614, 100)
  (relation_embeddings): Embedding(8, 100)
  (shallom): Sequential(
    (0): Linear(in_features=300, out_features=100, bias=True)
    (1): Dropout(p=0.5, inplace=False)
    (2): BatchNorm1d(100, eps=1e-05, momentum=0.1, affine=True, track_running_stats=True)
    (3): Dropout(p=0.5, inplace=False)
    (4): ReLU(inplace=True)
    (5): Dropout(p=0.5, inplace=False)
    (6): Linear(in_features=100, out_features=1, bias=True)
  )
)
2022-07-09 11:01:32,953 - KGE-only - INFO - Evaluation of Train data: TriplePrediction
2022-07-09 11:01:32,953 - KGE-only - INFO - Num of triples 1061
2022-07-09 11:01:32,961 - KGE-only - INFO - 0.8284637134778511
2022-07-09 11:01:32,968 - KGE-only - INFO -               precision    recall  f1-score   support

           0       0.84      0.84      0.84       561
…
weighted avg       0.80      0.80      0.80       979

2022-07-09 11:01:32,979 - KGE-only - INFO - --- Training is completed  ---
2022-07-09 11:01:32,979 - KGE-only - INFO - Store full model.
2022-07-09 11:01:33,031 - KGE-only - INFO - Stored data.
2022-07-09 11:01:33,032 - KGE-only - INFO - Total Runtime:0.125 minutes
2022-07-09 11:11:11,646 - KGE-only - INFO - --- Parameters are parsed for training ---
2022-07-09 11:11:11,678 - KGE-only - INFO -  Standard training starts: KGEModel-labeling:TriplePrediction
2022-07-09 11:11:11,678 - KGE-only - INFO - KGEModel(
  (loss): BCELoss()
  (entity_embeddings): Embedding(1707, 100)
  (relation_embeddings): Embedding(8, 100)
  (shallom): Sequential(
    (0): Linear(in_features=300, out_features=100, bias=True)
    (1): Dropout(p=0.5, inplace=False)
    (2): BatchNorm1d(100, eps=1e-05, momentum=0.1, affine=True, track_running_stats=True)
    (3): Dropout(p=0.5, inplace=False)
    (4): ReLU(inplace=True)
    (5): Dropout(p=0.5, inplace=False)
    (6): Linear(in_features=100, out_features=1, bias=True)
  )
)
2022-07-09 11:11:31,827 - KGE-only - INFO - Evaluation of Train data: TriplePrediction
2022-07-09 11:11:31,827 - KGE-only - INFO - Num of triples 1032
2022-07-09 11:11:31,836 - KGE-only - INFO - 0.9525193798449613
2022-07-09 11:11:31,842 - KGE-only - INFO -               precision    recall  f1-score   support

           0       0.96      0.95      0.95       532
…
weighted avg       0.95      0.95      0.95       947

2022-07-09 11:11:31,856 - KGE-only - INFO - --- Training is completed  ---
2022-07-09 11:11:31,857 - KGE-only - INFO - Store full model.
2022-07-09 11:11:31,925 - KGE-only - INFO - Stored data.
2022-07-09 11:11:31,925 - KGE-only - INFO - Total Runtime:0.338 minutes
2022-07-09 11:11:32,627 - KGE-only - INFO - --- Parameters are parsed for training ---
2022-07-09 11:11:32,652 - KGE-only - INFO -  Standard training starts: KGEModel-labeling:TriplePrediction
2022-07-09 11:11:32,653 - KGE-only - INFO - KGEModel(
  (loss): BCELoss()
  (entity_embeddings): Embedding(1512, 100)
  (relation_embeddings): Embedding(8, 100)
  (shallom): Sequential(
    (0): Linear(in_features=300, out_features=100, bias=True)
    (1): Dropout(p=0.5, inplace=False)
    (2): BatchNorm1d(100, eps=1e-05, momentum=0.1, affine=True, track_running_stats=True)
    (3): Dropout(p=0.5, inplace=False)
    (4): ReLU(inplace=True)
    (5): Dropout(p=0.5, inplace=False)
    (6): Linear(in_features=100, out_features=1, bias=True)
  )
)
2022-07-09 11:11:52,571 - KGE-only - INFO - Evaluation of Train data: TriplePrediction
2022-07-09 11:11:52,572 - KGE-only - INFO - Num of triples 999
2022-07-09 11:11:52,579 - KGE-only - INFO - 0.5815815815815816
2022-07-09 11:11:52,585 - KGE-only - INFO -               precision    recall  f1-score   support

           0       0.57      0.63      0.60       499
…
weighted avg       0.55      0.55      0.55       935

2022-07-09 11:11:52,599 - KGE-only - INFO - --- Training is completed  ---
2022-07-09 11:11:52,599 - KGE-only - INFO - Store full model.
2022-07-09 11:11:52,650 - KGE-only - INFO - Stored data.
2022-07-09 11:11:52,650 - KGE-only - INFO - Total Runtime:0.334 minutes
2022-07-09 11:11:53,347 - KGE-only - INFO - --- Parameters are parsed for training ---
2022-07-09 11:11:53,372 - KGE-only - INFO -  Standard training starts: KGEModel-labeling:TriplePrediction
2022-07-09 11:11:53,372 - KGE-only - INFO - KGEModel(
  (loss): BCELoss()
  (entity_embeddings): Embedding(1519, 100)
  (relation_embeddings): Embedding(8, 100)
  (shallom): Sequential(
    (0): Linear(in_features=300, out_features=100, bias=True)
    (1): Dropout(p=0.5, inplace=False)
    (2): BatchNorm1d(100, eps=1e-05, momentum=0.1, affine=True, track_running_stats=True)
    (3): Dropout(p=0.5, inplace=False)
    (4): ReLU(inplace=True)
    (5): Dropout(p=0.5, inplace=False)
    (6): Linear(in_features=100, out_features=1, bias=True)
  )
)
2022-07-09 11:12:14,347 - KGE-only - INFO - Evaluation of Train data: TriplePrediction
2022-07-09 11:12:14,347 - KGE-only - INFO - Num of triples 1000
2022-07-09 11:12:14,354 - KGE-only - INFO - 0.577
2022-07-09 11:12:14,361 - KGE-only - INFO -               precision    recall  f1-score   support

           0       0.55      0.86      0.67       500
…
weighted avg       0.52      0.51      0.46       935

2022-07-09 11:12:14,372 - KGE-only - INFO - --- Training is completed  ---
2022-07-09 11:12:14,372 - KGE-only - INFO - Store full model.
2022-07-09 11:12:14,424 - KGE-only - INFO - Stored data.
2022-07-09 11:12:14,424 - KGE-only - INFO - Total Runtime:0.351 minutes
2022-07-09 11:12:15,127 - KGE-only - INFO - --- Parameters are parsed for training ---
2022-07-09 11:12:15,152 - KGE-only - INFO -  Standard training starts: KGEModel-labeling:TriplePrediction
2022-07-09 11:12:15,153 - KGE-only - INFO - KGEModel(
  (loss): BCELoss()
  (entity_embeddings): Embedding(1503, 100)
  (relation_embeddings): Embedding(8, 100)
  (shallom): Sequential(
    (0): Linear(in_features=300, out_features=100, bias=True)
    (1): Dropout(p=0.5, inplace=False)
    (2): BatchNorm1d(100, eps=1e-05, momentum=0.1, affine=True, track_running_stats=True)
    (3): Dropout(p=0.5, inplace=False)
    (4): ReLU(inplace=True)
    (5): Dropout(p=0.5, inplace=False)
    (6): Linear(in_features=100, out_features=1, bias=True)
  )
)
2022-07-09 11:12:36,431 - KGE-only - INFO - Evaluation of Train data: TriplePrediction
2022-07-09 11:12:36,432 - KGE-only - INFO - Num of triples 990
2022-07-09 11:12:36,438 - KGE-only - INFO - 0.6464646464646465
2022-07-09 11:12:36,445 - KGE-only - INFO -               precision    recall  f1-score   support

           0       0.70      0.51      0.59       490
…
weighted avg       0.58      0.58      0.57       939

2022-07-09 11:12:36,458 - KGE-only - INFO - --- Training is completed  ---
2022-07-09 11:12:36,458 - KGE-only - INFO - Store full model.
2022-07-09 11:12:36,523 - KGE-only - INFO - Stored data.
2022-07-09 11:12:36,524 - KGE-only - INFO - Total Runtime:0.357 minutes
2022-07-09 11:12:37,287 - KGE-only - INFO - --- Parameters are parsed for training ---
2022-07-09 11:12:37,313 - KGE-only - INFO -  Standard training starts: KGEModel-labeling:TriplePrediction
2022-07-09 11:12:37,314 - KGE-only - INFO - KGEModel(
  (loss): BCELoss()
  (entity_embeddings): Embedding(1584, 100)
  (relation_embeddings): Embedding(8, 100)
  (shallom): Sequential(
    (0): Linear(in_features=300, out_features=100, bias=True)
    (1): Dropout(p=0.5, inplace=False)
    (2): BatchNorm1d(100, eps=1e-05, momentum=0.1, affine=True, track_running_stats=True)
    (3): Dropout(p=0.5, inplace=False)
    (4): ReLU(inplace=True)
    (5): Dropout(p=0.5, inplace=False)
    (6): Linear(in_features=100, out_features=1, bias=True)
  )
)
2022-07-09 11:13:04,339 - KGE-only - INFO - Evaluation of Train data: TriplePrediction
2022-07-09 11:13:04,340 - KGE-only - INFO - Num of triples 1025
2022-07-09 11:13:04,346 - KGE-only - INFO - 0.593170731707317
2022-07-09 11:13:04,353 - KGE-only - INFO -               precision    recall  f1-score   support

           0       0.58      0.71      0.64       525
…
