2022-07-09 11:19:25,919 - text-KGE-Hybrid - INFO - --- Parameters are parsed for training ---
2022-07-09 11:19:26,678 - text-KGE-Hybrid - INFO -  Standard training starts: TextKGEHybridModel-labeling:TriplePrediction
2022-07-09 11:19:26,679 - text-KGE-Hybrid - INFO - TextKGEHybridModel(
  (loss): BCELoss()
  (entity_embeddings): Embedding(1519, 100)
  (relation_embeddings): Embedding(8, 100)
  (sentence_embeddings_train): Embedding(1000, 2304)
  (sentence_embeddings_test): Embedding(935, 2304)
  (sentence_embeddings_valid): Embedding(50, 2304)
  (kg_classification_layer): Sequential(
    (0): Linear(in_features=300, out_features=2560, bias=True)
    (1): BatchNorm1d(2560, eps=1e-05, momentum=0.1, affine=True, track_running_stats=True)
    (2): ReLU()
    (3): Dropout(p=0.5, inplace=False)
    (4): Linear(in_features=2560, out_features=2560, bias=True)
  )
  (sentence_classification_layer): Sequential(
    (0): Linear(in_features=2304, out_features=2560, bias=True)
    (1): BatchNorm1d(2560, eps=1e-05, momentum=0.1, affine=True, track_running_stats=True)
    (2): ReLU()
    (3): Dropout(p=0.5, inplace=False)
    (4): Linear(in_features=2560, out_features=2560, bias=True)
  )
  (final_classification_layer): Sequential(
    (0): Linear(in_features=5120, out_features=2560, bias=True)
    (1): BatchNorm1d(2560, eps=1e-05, momentum=0.1, affine=True, track_running_stats=True)
    (2): ReLU()
    (3): Dropout(p=0.5, inplace=False)
    (4): Linear(in_features=2560, out_features=1, bias=True)
  )
)
2022-07-09 11:19:53,296 - text-KGE-Hybrid - INFO - Evaluation of Train data: TriplePrediction
2022-07-09 11:19:53,296 - text-KGE-Hybrid - INFO - Num of triples 1000
2022-07-09 11:19:53,460 - text-KGE-Hybrid - INFO - 0.818
2022-07-09 11:19:53,466 - text-KGE-Hybrid - INFO -               precision    recall  f1-score   support

           0       0.87      0.74      0.80       500
…
2022-07-09 11:19:53,591 - text-KGE-Hybrid - INFO - --- Training is completed  ---
2022-07-09 11:19:53,591 - text-KGE-Hybrid - INFO - Store full model.
2022-07-09 11:19:53,842 - text-KGE-Hybrid - INFO - Stored data.
2022-07-09 11:19:53,842 - text-KGE-Hybrid - INFO - Total Runtime:0.465 minutes
2022-07-09 11:19:55,601 - text-KGE-Hybrid - INFO - --- Parameters are parsed for training ---
2022-07-09 11:19:56,351 - text-KGE-Hybrid - INFO -  Standard training starts: TextKGEHybridModel-labeling:TriplePrediction
2022-07-09 11:19:56,351 - text-KGE-Hybrid - INFO - TextKGEHybridModel(
  (loss): BCELoss()
  (entity_embeddings): Embedding(1503, 100)
  (relation_embeddings): Embedding(8, 100)
  (sentence_embeddings_train): Embedding(990, 2304)
  (sentence_embeddings_test): Embedding(939, 2304)
  (sentence_embeddings_valid): Embedding(50, 2304)
  (kg_classification_layer): Sequential(
    (0): Linear(in_features=300, out_features=2560, bias=True)
    (1): BatchNorm1d(2560, eps=1e-05, momentum=0.1, affine=True, track_running_stats=True)
    (2): ReLU()
    (3): Dropout(p=0.5, inplace=False)
    (4): Linear(in_features=2560, out_features=2560, bias=True)
  )
  (sentence_classification_layer): Sequential(
    (0): Linear(in_features=2304, out_features=2560, bias=True)
    (1): BatchNorm1d(2560, eps=1e-05, momentum=0.1, affine=True, track_running_stats=True)
    (2): ReLU()
    (3): Dropout(p=0.5, inplace=False)
    (4): Linear(in_features=2560, out_features=2560, bias=True)
  )
  (final_classification_layer): Sequential(
    (0): Linear(in_features=5120, out_features=2560, bias=True)
    (1): BatchNorm1d(2560, eps=1e-05, momentum=0.1, affine=True, track_running_stats=True)
    (2): ReLU()
    (3): Dropout(p=0.5, inplace=False)
    (4): Linear(in_features=2560, out_features=1, bias=True)
  )
)
2022-07-09 11:20:23,180 - text-KGE-Hybrid - INFO - Evaluation of Train data: TriplePrediction
2022-07-09 11:20:23,180 - text-KGE-Hybrid - INFO - Num of triples 990
2022-07-09 11:20:23,338 - text-KGE-Hybrid - INFO - 0.807070707070707
2022-07-09 11:20:23,344 - text-KGE-Hybrid - INFO -               precision    recall  f1-score   support

           0       0.73      0.96      0.83       490
…
2022-07-09 11:20:23,470 - text-KGE-Hybrid - INFO - --- Training is completed  ---
2022-07-09 11:20:23,471 - text-KGE-Hybrid - INFO - Store full model.
2022-07-09 11:20:23,713 - text-KGE-Hybrid - INFO - Stored data.
2022-07-09 11:20:23,713 - text-KGE-Hybrid - INFO - Total Runtime:0.469 minutes
2022-07-09 11:20:25,597 - text-KGE-Hybrid - INFO - --- Parameters are parsed for training ---
2022-07-09 11:20:26,387 - text-KGE-Hybrid - INFO -  Standard training starts: TextKGEHybridModel-labeling:TriplePrediction
2022-07-09 11:20:26,388 - text-KGE-Hybrid - INFO - TextKGEHybridModel(
  (loss): BCELoss()
  (entity_embeddings): Embedding(1584, 100)
  (relation_embeddings): Embedding(8, 100)
  (sentence_embeddings_train): Embedding(1025, 2304)
  (sentence_embeddings_test): Embedding(972, 2304)
  (sentence_embeddings_valid): Embedding(52, 2304)
  (kg_classification_layer): Sequential(
    (0): Linear(in_features=300, out_features=2560, bias=True)
    (1): BatchNorm1d(2560, eps=1e-05, momentum=0.1, affine=True, track_running_stats=True)
    (2): ReLU()
    (3): Dropout(p=0.5, inplace=False)
    (4): Linear(in_features=2560, out_features=2560, bias=True)
  )
  (sentence_classification_layer): Sequential(
    (0): Linear(in_features=2304, out_features=2560, bias=True)
    (1): BatchNorm1d(2560, eps=1e-05, momentum=0.1, affine=True, track_running_stats=True)
    (2): ReLU()
    (3): Dropout(p=0.5, inplace=False)
    (4): Linear(in_features=2560, out_features=2560, bias=True)
  )
  (final_classification_layer): Sequential(
    (0): Linear(in_features=5120, out_features=2560, bias=True)
    (1): BatchNorm1d(2560, eps=1e-05, momentum=0.1, affine=True, track_running_stats=True)
    (2): ReLU()
    (3): Dropout(p=0.5, inplace=False)
    (4): Linear(in_features=2560, out_features=1, bias=True)
  )
)
2022-07-09 11:20:51,086 - text-KGE-Hybrid - INFO - Evaluation of Train data: TriplePrediction
2022-07-09 11:20:51,087 - text-KGE-Hybrid - INFO - Num of triples 1025
2022-07-09 11:20:51,256 - text-KGE-Hybrid - INFO - 0.7658536585365854
2022-07-09 11:20:51,263 - text-KGE-Hybrid - INFO -               precision    recall  f1-score   support

           0       0.75      0.81      0.78       525
…
2022-07-09 11:20:51,392 - text-KGE-Hybrid - INFO - --- Training is completed  ---
2022-07-09 11:20:51,393 - text-KGE-Hybrid - INFO - Store full model.
2022-07-09 11:20:51,629 - text-KGE-Hybrid - INFO - Stored data.
2022-07-09 11:20:51,630 - text-KGE-Hybrid - INFO - Total Runtime:0.434 minutes
2022-07-09 11:20:53,572 - text-KGE-Hybrid - INFO - --- Parameters are parsed for training ---
2022-07-09 11:20:54,350 - text-KGE-Hybrid - INFO -  Standard training starts: TextKGEHybridModel-labeling:TriplePrediction
2022-07-09 11:20:54,350 - text-KGE-Hybrid - INFO - TextKGEHybridModel(
  (loss): BCELoss()
  (entity_embeddings): Embedding(1614, 100)
  (relation_embeddings): Embedding(8, 100)
  (sentence_embeddings_train): Embedding(1061, 2304)
  (sentence_embeddings_test): Embedding(979, 2304)
  (sentence_embeddings_valid): Embedding(52, 2304)
  (kg_classification_layer): Sequential(
    (0): Linear(in_features=300, out_features=2560, bias=True)
    (1): BatchNorm1d(2560, eps=1e-05, momentum=0.1, affine=True, track_running_stats=True)
    (2): ReLU()
    (3): Dropout(p=0.5, inplace=False)
    (4): Linear(in_features=2560, out_features=2560, bias=True)
  )
  (sentence_classification_layer): Sequential(
    (0): Linear(in_features=2304, out_features=2560, bias=True)
    (1): BatchNorm1d(2560, eps=1e-05, momentum=0.1, affine=True, track_running_stats=True)
    (2): ReLU()
    (3): Dropout(p=0.5, inplace=False)
    (4): Linear(in_features=2560, out_features=2560, bias=True)
  )
  (final_classification_layer): Sequential(
    (0): Linear(in_features=5120, out_features=2560, bias=True)
    (1): BatchNorm1d(2560, eps=1e-05, momentum=0.1, affine=True, track_running_stats=True)
    (2): ReLU()
    (3): Dropout(p=0.5, inplace=False)
    (4): Linear(in_features=2560, out_features=1, bias=True)
  )
)
2022-07-09 11:21:20,975 - text-KGE-Hybrid - INFO - Evaluation of Train data: TriplePrediction
2022-07-09 11:21:20,976 - text-KGE-Hybrid - INFO - Num of triples 1061
2022-07-09 11:21:21,123 - text-KGE-Hybrid - INFO - 0.9660697455230914
2022-07-09 11:21:21,129 - text-KGE-Hybrid - INFO -               precision    recall  f1-score   support

           0       0.99      0.94      0.97       561
…
2022-07-09 11:21:21,247 - text-KGE-Hybrid - INFO - --- Training is completed  ---
2022-07-09 11:21:21,248 - text-KGE-Hybrid - INFO - Store full model.
2022-07-09 11:21:21,495 - text-KGE-Hybrid - INFO - Stored data.
2022-07-09 11:21:21,495 - text-KGE-Hybrid - INFO - Total Runtime:0.465 minutes
2022-07-09 11:47:52,961 - text-KGE-Hybrid - INFO - --- Parameters are parsed for training ---
2022-07-09 11:47:53,797 - text-KGE-Hybrid - INFO -  Standard training starts: TextKGEHybridModel-labeling:TriplePrediction
2022-07-09 11:47:53,798 - text-KGE-Hybrid - INFO - TextKGEHybridModel(
  (loss): BCELoss()
  (entity_embeddings): Embedding(1707, 100)
  (relation_embeddings): Embedding(8, 100)
  (sentence_embeddings_train): Embedding(1032, 2304)
  (sentence_embeddings_test): Embedding(947, 2304)
  (sentence_embeddings_valid): Embedding(50, 2304)
  (kg_classification_layer): Sequential(
    (0): Linear(in_features=300, out_features=2560, bias=True)
    (1): BatchNorm1d(2560, eps=1e-05, momentum=0.1, affine=True, track_running_stats=True)
    (2): ReLU()
    (3): Dropout(p=0.5, inplace=False)
    (4): Linear(in_features=2560, out_features=2560, bias=True)
  )
  (sentence_classification_layer): Sequential(
    (0): Linear(in_features=2304, out_features=2560, bias=True)
    (1): BatchNorm1d(2560, eps=1e-05, momentum=0.1, affine=True, track_running_stats=True)
    (2): ReLU()
    (3): Dropout(p=0.5, inplace=False)
    (4): Linear(in_features=2560, out_features=2560, bias=True)
  )
  (final_classification_layer): Sequential(
    (0): Linear(in_features=5120, out_features=2560, bias=True)
    (1): BatchNorm1d(2560, eps=1e-05, momentum=0.1, affine=True, track_running_stats=True)
    (2): ReLU()
    (3): Dropout(p=0.5, inplace=False)
    (4): Linear(in_features=2560, out_features=1, bias=True)
  )
)
2022-07-09 11:48:45,222 - text-KGE-Hybrid - INFO - Evaluation of Train data: TriplePrediction
2022-07-09 11:48:45,222 - text-KGE-Hybrid - INFO - Num of triples 1032
2022-07-09 11:48:45,390 - text-KGE-Hybrid - INFO - 0.9767441860465116
2022-07-09 11:48:45,397 - text-KGE-Hybrid - INFO -               precision    recall  f1-score   support

           0       1.00      0.95      0.98       532
…
2022-07-09 11:48:45,533 - text-KGE-Hybrid - INFO - --- Training is completed  ---
2022-07-09 11:48:45,533 - text-KGE-Hybrid - INFO - Store full model.
2022-07-09 11:48:45,803 - text-KGE-Hybrid - INFO - Stored data.
2022-07-09 11:48:45,804 - text-KGE-Hybrid - INFO - Total Runtime:0.881 minutes
2022-07-09 11:48:47,597 - text-KGE-Hybrid - INFO - --- Parameters are parsed for training ---
2022-07-09 11:48:48,369 - text-KGE-Hybrid - INFO -  Standard training starts: TextKGEHybridModel-labeling:TriplePrediction
2022-07-09 11:48:48,370 - text-KGE-Hybrid - INFO - TextKGEHybridModel(
  (loss): BCELoss()
  (entity_embeddings): Embedding(1512, 100)
  (relation_embeddings): Embedding(8, 100)
  (sentence_embeddings_train): Embedding(999, 2304)
  (sentence_embeddings_test): Embedding(935, 2304)
  (sentence_embeddings_valid): Embedding(50, 2304)
  (kg_classification_layer): Sequential(
    (0): Linear(in_features=300, out_features=2560, bias=True)
    (1): BatchNorm1d(2560, eps=1e-05, momentum=0.1, affine=True, track_running_stats=True)
    (2): ReLU()
    (3): Dropout(p=0.5, inplace=False)
    (4): Linear(in_features=2560, out_features=2560, bias=True)
  )
  (sentence_classification_layer): Sequential(
    (0): Linear(in_features=2304, out_features=2560, bias=True)
    (1): BatchNorm1d(2560, eps=1e-05, momentum=0.1, affine=True, track_running_stats=True)
    (2): ReLU()
    (3): Dropout(p=0.5, inplace=False)
    (4): Linear(in_features=2560, out_features=2560, bias=True)
  )
  (final_classification_layer): Sequential(
    (0): Linear(in_features=5120, out_features=2560, bias=True)
    (1): BatchNorm1d(2560, eps=1e-05, momentum=0.1, affine=True, track_running_stats=True)
    (2): ReLU()
    (3): Dropout(p=0.5, inplace=False)
    (4): Linear(in_features=2560, out_features=1, bias=True)
  )
)
2022-07-09 11:49:39,922 - text-KGE-Hybrid - INFO - Evaluation of Train data: TriplePrediction
2022-07-09 11:49:39,923 - text-KGE-Hybrid - INFO - Num of triples 999
2022-07-09 11:49:40,106 - text-KGE-Hybrid - INFO - 0.8028028028028028
2022-07-09 11:49:40,113 - text-KGE-Hybrid - INFO -               precision    recall  f1-score   support

           0       0.83      0.76      0.79       499
…
