2022-07-11 14:48:57,456 - KGE-path-Hybrid - INFO - --- Parameters are parsed for training ---
2022-07-11 14:48:57,644 - KGE-path-Hybrid - INFO -  Standard training starts: PathKGEHybridModel-labeling:TriplePrediction
2022-07-11 14:48:57,644 - KGE-path-Hybrid - INFO - PathKGEHybridModel(
  (loss): BCELoss()
  (entity_embeddings): Embedding(250, 100)
  (relation_embeddings): Embedding(2, 100)
  (copaal_veracity_score_train): Embedding(206, 1)
  (copaal_veracity_score_test): Embedding(195, 1)
  (copaal_veracity_score_valid): Embedding(11, 1)
  (kg_classification_layer): Sequential(
    (0): Linear(in_features=300, out_features=2560, bias=True)
    (1): BatchNorm1d(2560, eps=1e-05, momentum=0.1, affine=True, track_running_stats=True)
    (2): ReLU()
    (3): Dropout(p=0.5, inplace=False)
    (4): Linear(in_features=2560, out_features=2560, bias=True)
  )
  (path_classification_layer): Sequential(
    (0): Linear(in_features=1, out_features=2560, bias=True)
    (1): BatchNorm1d(2560, eps=1e-05, momentum=0.1, affine=True, track_running_stats=True)
    (2): ReLU()
    (3): Dropout(p=0.5, inplace=False)
    (4): Linear(in_features=2560, out_features=2560, bias=True)
  )
  (final_classification_layer): Sequential(
    (0): Linear(in_features=5120, out_features=2560, bias=True)
    (1): BatchNorm1d(2560, eps=1e-05, momentum=0.1, affine=True, track_running_stats=True)
    (2): ReLU()
    (3): Dropout(p=0.5, inplace=False)
    (4): Linear(in_features=2560, out_features=1, bias=True)
  )
)
2022-07-11 14:52:07,692 - KGE-path-Hybrid - INFO - Evaluation of Train data: TriplePrediction
2022-07-11 14:52:07,692 - KGE-path-Hybrid - INFO - Num of triples 206
2022-07-11 14:52:07,726 - KGE-path-Hybrid - INFO - 0.9902912621359223
2022-07-11 14:52:07,732 - KGE-path-Hybrid - INFO -               precision    recall  f1-score   support

           0       1.00      0.98      0.99       103
…
