2022-07-09 11:47:06,838 - path-only - INFO - --- Parameters are parsed for training ---
2022-07-09 11:47:06,934 - path-only - INFO -  Standard training starts: PathModel-labeling:TriplePrediction
2022-07-09 11:47:06,935 - path-only - INFO - PathModel(
  (loss): BCELoss()
  (copaal_veracity_score_train): Embedding(1061, 1)
  (copaal_veracity_score_test): Embedding(979, 1)
  (copaal_veracity_score_valid): Embedding(52, 1)
  (path_classification_layer): Sequential(
    (0): Linear(in_features=1, out_features=2560, bias=True)
    (1): BatchNorm1d(2560, eps=1e-05, momentum=0.1, affine=True, track_running_stats=True)
    (2): ReLU()
    (3): Dropout(p=0.5, inplace=False)
    (4): Linear(in_features=2560, out_features=2560, bias=True)
  )
  (final_classification_layer): Sequential(
    (0): Linear(in_features=2560, out_features=2560, bias=True)
    (1): BatchNorm1d(2560, eps=1e-05, momentum=0.1, affine=True, track_running_stats=True)
    (2): ReLU()
    (3): Dropout(p=0.5, inplace=False)
    (4): Linear(in_features=2560, out_features=1, bias=True)
  )
)
2022-07-09 11:47:50,786 - path-only - INFO - Evaluation of Train data: TriplePrediction
2022-07-09 11:47:50,787 - path-only - INFO - Num of triples 1061
2022-07-09 11:47:50,851 - path-only - INFO - 0.471253534401508
2022-07-09 11:47:50,858 - path-only - INFO -               precision    recall  f1-score   support

           0       0.00      0.00      0.00       561
…
weighted avg       0.23      0.48      0.31       979

2022-07-09 11:47:50,919 - path-only - INFO - --- Training is completed  ---
2022-07-09 11:47:50,920 - path-only - INFO - Store full model.
2022-07-09 11:47:51,076 - path-only - INFO - Stored data.
2022-07-09 11:47:51,076 - path-only - INFO - Total Runtime:0.737 minutes
2022-07-09 12:34:14,931 - path-only - INFO - --- Parameters are parsed for training ---
2022-07-09 12:34:15,030 - path-only - INFO -  Standard training starts: PathModel-labeling:TriplePrediction
2022-07-09 12:34:15,031 - path-only - INFO - PathModel(
  (loss): BCELoss()
  (copaal_veracity_score_train): Embedding(1032, 1)
  (copaal_veracity_score_test): Embedding(947, 1)
  (copaal_veracity_score_valid): Embedding(50, 1)
  (path_classification_layer): Sequential(
    (0): Linear(in_features=1, out_features=2560, bias=True)
    (1): BatchNorm1d(2560, eps=1e-05, momentum=0.1, affine=True, track_running_stats=True)
    (2): ReLU()
    (3): Dropout(p=0.5, inplace=False)
    (4): Linear(in_features=2560, out_features=2560, bias=True)
  )
  (final_classification_layer): Sequential(
    (0): Linear(in_features=2560, out_features=2560, bias=True)
    (1): BatchNorm1d(2560, eps=1e-05, momentum=0.1, affine=True, track_running_stats=True)
    (2): ReLU()
    (3): Dropout(p=0.5, inplace=False)
    (4): Linear(in_features=2560, out_features=1, bias=True)
  )
)
2022-07-09 12:35:58,605 - path-only - INFO - Evaluation of Train data: TriplePrediction
2022-07-09 12:35:58,606 - path-only - INFO - Num of triples 1032
2022-07-09 12:35:58,692 - path-only - INFO - 0.688953488372093
2022-07-09 12:35:58,699 - path-only - INFO -               precision    recall  f1-score   support

           0       0.63      0.95      0.76       532
…
weighted avg       0.69      0.65      0.62       947

2022-07-09 12:35:58,758 - path-only - INFO - --- Training is completed  ---
2022-07-09 12:35:58,758 - path-only - INFO - Store full model.
2022-07-09 12:35:58,963 - path-only - INFO - Stored data.
2022-07-09 12:35:58,964 - path-only - INFO - Total Runtime:1.734 minutes
2022-07-09 12:36:00,751 - path-only - INFO - --- Parameters are parsed for training ---
2022-07-09 12:36:00,848 - path-only - INFO -  Standard training starts: PathModel-labeling:TriplePrediction
2022-07-09 12:36:00,848 - path-only - INFO - PathModel(
  (loss): BCELoss()
  (copaal_veracity_score_train): Embedding(999, 1)
  (copaal_veracity_score_test): Embedding(935, 1)
  (copaal_veracity_score_valid): Embedding(50, 1)
  (path_classification_layer): Sequential(
    (0): Linear(in_features=1, out_features=2560, bias=True)
    (1): BatchNorm1d(2560, eps=1e-05, momentum=0.1, affine=True, track_running_stats=True)
    (2): ReLU()
    (3): Dropout(p=0.5, inplace=False)
    (4): Linear(in_features=2560, out_features=2560, bias=True)
  )
  (final_classification_layer): Sequential(
    (0): Linear(in_features=2560, out_features=2560, bias=True)
    (1): BatchNorm1d(2560, eps=1e-05, momentum=0.1, affine=True, track_running_stats=True)
    (2): ReLU()
    (3): Dropout(p=0.5, inplace=False)
    (4): Linear(in_features=2560, out_features=1, bias=True)
  )
)
2022-07-09 12:37:29,878 - path-only - INFO - Evaluation of Train data: TriplePrediction
2022-07-09 12:37:29,880 - path-only - INFO - Num of triples 999
2022-07-09 12:37:29,961 - path-only - INFO - 0.6616616616616616
2022-07-09 12:37:29,968 - path-only - INFO -               precision    recall  f1-score   support

           0       0.61      0.91      0.73       499
…
weighted avg       0.67      0.63      0.61       935

2022-07-09 12:37:30,026 - path-only - INFO - --- Training is completed  ---
2022-07-09 12:37:30,026 - path-only - INFO - Store full model.
2022-07-09 12:37:30,181 - path-only - INFO - Stored data.
2022-07-09 12:37:30,181 - path-only - INFO - Total Runtime:1.491 minutes
2022-07-09 12:37:31,918 - path-only - INFO - --- Parameters are parsed for training ---
2022-07-09 12:37:32,015 - path-only - INFO -  Standard training starts: PathModel-labeling:TriplePrediction
2022-07-09 12:37:32,016 - path-only - INFO - PathModel(
  (loss): BCELoss()
  (copaal_veracity_score_train): Embedding(1000, 1)
  (copaal_veracity_score_test): Embedding(935, 1)
  (copaal_veracity_score_valid): Embedding(50, 1)
  (path_classification_layer): Sequential(
    (0): Linear(in_features=1, out_features=2560, bias=True)
    (1): BatchNorm1d(2560, eps=1e-05, momentum=0.1, affine=True, track_running_stats=True)
    (2): ReLU()
    (3): Dropout(p=0.5, inplace=False)
    (4): Linear(in_features=2560, out_features=2560, bias=True)
  )
  (final_classification_layer): Sequential(
    (0): Linear(in_features=2560, out_features=2560, bias=True)
    (1): BatchNorm1d(2560, eps=1e-05, momentum=0.1, affine=True, track_running_stats=True)
    (2): ReLU()
    (3): Dropout(p=0.5, inplace=False)
    (4): Linear(in_features=2560, out_features=1, bias=True)
  )
)
2022-07-09 12:39:01,635 - path-only - INFO - Evaluation of Train data: TriplePrediction
2022-07-09 12:39:01,636 - path-only - INFO - Num of triples 1000
2022-07-09 12:39:01,703 - path-only - INFO - 0.66
2022-07-09 12:39:01,710 - path-only - INFO -               precision    recall  f1-score   support

           0       0.61      0.91      0.73       500
…
weighted avg       0.67      0.63      0.61       935

2022-07-09 12:39:01,769 - path-only - INFO - --- Training is completed  ---
2022-07-09 12:39:01,770 - path-only - INFO - Store full model.
2022-07-09 12:39:01,931 - path-only - INFO - Stored data.
2022-07-09 12:39:01,932 - path-only - INFO - Total Runtime:1.500 minutes
2022-07-09 12:39:03,657 - path-only - INFO - --- Parameters are parsed for training ---
2022-07-09 12:39:03,753 - path-only - INFO -  Standard training starts: PathModel-labeling:TriplePrediction
2022-07-09 12:39:03,754 - path-only - INFO - PathModel(
  (loss): BCELoss()
  (copaal_veracity_score_train): Embedding(990, 1)
  (copaal_veracity_score_test): Embedding(939, 1)
  (copaal_veracity_score_valid): Embedding(50, 1)
  (path_classification_layer): Sequential(
    (0): Linear(in_features=1, out_features=2560, bias=True)
    (1): BatchNorm1d(2560, eps=1e-05, momentum=0.1, affine=True, track_running_stats=True)
    (2): ReLU()
    (3): Dropout(p=0.5, inplace=False)
    (4): Linear(in_features=2560, out_features=2560, bias=True)
  )
  (final_classification_layer): Sequential(
    (0): Linear(in_features=2560, out_features=2560, bias=True)
    (1): BatchNorm1d(2560, eps=1e-05, momentum=0.1, affine=True, track_running_stats=True)
    (2): ReLU()
    (3): Dropout(p=0.5, inplace=False)
    (4): Linear(in_features=2560, out_features=1, bias=True)
  )
)
2022-07-09 12:40:33,254 - path-only - INFO - Evaluation of Train data: TriplePrediction
2022-07-09 12:40:33,255 - path-only - INFO - Num of triples 990
2022-07-09 12:40:33,325 - path-only - INFO - 0.6747474747474748
2022-07-09 12:40:33,332 - path-only - INFO -               precision    recall  f1-score   support

           0       0.61      0.95      0.74       490
…
weighted avg       0.69      0.64      0.61       939

2022-07-09 12:40:33,389 - path-only - INFO - --- Training is completed  ---
2022-07-09 12:40:33,389 - path-only - INFO - Store full model.
2022-07-09 12:40:33,535 - path-only - INFO - Stored data.
2022-07-09 12:40:33,536 - path-only - INFO - Total Runtime:1.498 minutes
2022-07-09 12:40:35,278 - path-only - INFO - --- Parameters are parsed for training ---
2022-07-09 12:40:35,374 - path-only - INFO -  Standard training starts: PathModel-labeling:TriplePrediction
2022-07-09 12:40:35,375 - path-only - INFO - PathModel(
  (loss): BCELoss()
  (copaal_veracity_score_train): Embedding(1025, 1)
  (copaal_veracity_score_test): Embedding(972, 1)
  (copaal_veracity_score_valid): Embedding(52, 1)
  (path_classification_layer): Sequential(
    (0): Linear(in_features=1, out_features=2560, bias=True)
    (1): BatchNorm1d(2560, eps=1e-05, momentum=0.1, affine=True, track_running_stats=True)
    (2): ReLU()
    (3): Dropout(p=0.5, inplace=False)
    (4): Linear(in_features=2560, out_features=2560, bias=True)
  )
  (final_classification_layer): Sequential(
    (0): Linear(in_features=2560, out_features=2560, bias=True)
    (1): BatchNorm1d(2560, eps=1e-05, momentum=0.1, affine=True, track_running_stats=True)
    (2): ReLU()
    (3): Dropout(p=0.5, inplace=False)
    (4): Linear(in_features=2560, out_features=1, bias=True)
  )
)
2022-07-09 12:42:13,418 - path-only - INFO - Evaluation of Train data: TriplePrediction
2022-07-09 12:42:13,420 - path-only - INFO - Num of triples 1025
2022-07-09 12:42:13,484 - path-only - INFO - 0.6517073170731708
2022-07-09 12:42:13,491 - path-only - INFO -               precision    recall  f1-score   support

           0       0.61      0.88      0.72       525
…
