2022-07-09 10:59:50,324 - full-Hybrid - INFO - --- Parameters are parsed for training ---
2022-07-09 10:59:51,088 - full-Hybrid - INFO -  Standard training starts: Hybrid-labeling:TriplePrediction
2022-07-09 10:59:51,088 - full-Hybrid - INFO - FullHybridModel(
  (loss): BCELoss()
  (entity_embeddings): Embedding(1519, 100)
  (relation_embeddings): Embedding(8, 100)
  (sentence_embeddings_train): Embedding(1000, 2304)
  (sentence_embeddings_test): Embedding(935, 2304)
  (sentence_embeddings_valid): Embedding(50, 2304)
  (copaal_veracity_score_train): Embedding(1000, 1)
  (copaal_veracity_score_test): Embedding(935, 1)
  (copaal_veracity_score_valid): Embedding(50, 1)
  (kg_classification_layer): Sequential(
    (0): Linear(in_features=300, out_features=2560, bias=True)
    (1): BatchNorm1d(2560, eps=1e-05, momentum=0.1, affine=True, track_running_stats=True)
    (2): ReLU()
    (3): Dropout(p=0.5, inplace=False)
    (4): Linear(in_features=2560, out_features=2560, bias=True)
  )
  (sentence_classification_layer): Sequential(
    (0): Linear(in_features=2304, out_features=2560, bias=True)
    (1): BatchNorm1d(2560, eps=1e-05, momentum=0.1, affine=True, track_running_stats=True)
    (2): ReLU()
    (3): Dropout(p=0.5, inplace=False)
    (4): Linear(in_features=2560, out_features=2560, bias=True)
  )
  (final_classification_layer): Sequential(
    (0): Linear(in_features=5121, out_features=2560, bias=True)
    (1): BatchNorm1d(2560, eps=1e-05, momentum=0.1, affine=True, track_running_stats=True)
    (2): ReLU()
    (3): Dropout(p=0.5, inplace=False)
    (4): Linear(in_features=2560, out_features=1, bias=True)
  )
)
2022-07-09 11:00:00,758 - full-Hybrid - INFO - Evaluation of Train data: TriplePrediction
2022-07-09 11:00:00,759 - full-Hybrid - INFO - Num of triples 1000
2022-07-09 11:00:00,917 - full-Hybrid - INFO - 0.73
2022-07-09 11:00:00,923 - full-Hybrid - INFO -               precision    recall  f1-score   support

           0       0.72      0.74      0.73       500
…
weighted avg       0.66      0.66      0.66       935

2022-07-09 11:00:01,054 - full-Hybrid - INFO - --- Training is completed  ---
2022-07-09 11:00:01,055 - full-Hybrid - INFO - Store full model.
2022-07-09 11:00:01,308 - full-Hybrid - INFO - Stored data.
2022-07-09 11:00:01,308 - full-Hybrid - INFO - Total Runtime:0.183 minutes
2022-07-09 11:00:03,009 - full-Hybrid - INFO - --- Parameters are parsed for training ---
2022-07-09 11:00:03,785 - full-Hybrid - INFO -  Standard training starts: Hybrid-labeling:TriplePrediction
2022-07-09 11:00:03,786 - full-Hybrid - INFO - FullHybridModel(
  (loss): BCELoss()
  (entity_embeddings): Embedding(1503, 100)
  (relation_embeddings): Embedding(8, 100)
  (sentence_embeddings_train): Embedding(990, 2304)
  (sentence_embeddings_test): Embedding(939, 2304)
  (sentence_embeddings_valid): Embedding(50, 2304)
  (copaal_veracity_score_train): Embedding(990, 1)
  (copaal_veracity_score_test): Embedding(939, 1)
  (copaal_veracity_score_valid): Embedding(50, 1)
  (kg_classification_layer): Sequential(
    (0): Linear(in_features=300, out_features=2560, bias=True)
    (1): BatchNorm1d(2560, eps=1e-05, momentum=0.1, affine=True, track_running_stats=True)
    (2): ReLU()
    (3): Dropout(p=0.5, inplace=False)
    (4): Linear(in_features=2560, out_features=2560, bias=True)
  )
  (sentence_classification_layer): Sequential(
    (0): Linear(in_features=2304, out_features=2560, bias=True)
    (1): BatchNorm1d(2560, eps=1e-05, momentum=0.1, affine=True, track_running_stats=True)
    (2): ReLU()
    (3): Dropout(p=0.5, inplace=False)
    (4): Linear(in_features=2560, out_features=2560, bias=True)
  )
  (final_classification_layer): Sequential(
    (0): Linear(in_features=5121, out_features=2560, bias=True)
    (1): BatchNorm1d(2560, eps=1e-05, momentum=0.1, affine=True, track_running_stats=True)
    (2): ReLU()
    (3): Dropout(p=0.5, inplace=False)
    (4): Linear(in_features=2560, out_features=1, bias=True)
  )
)
2022-07-09 11:00:13,739 - full-Hybrid - INFO - Evaluation of Train data: TriplePrediction
2022-07-09 11:00:13,739 - full-Hybrid - INFO - Num of triples 990
2022-07-09 11:00:13,895 - full-Hybrid - INFO - 0.6585858585858586
2022-07-09 11:00:13,901 - full-Hybrid - INFO -               precision    recall  f1-score   support

           0       0.60      0.97      0.74       490
…
weighted avg       0.69      0.62      0.58       939

2022-07-09 11:00:14,027 - full-Hybrid - INFO - --- Training is completed  ---
2022-07-09 11:00:14,027 - full-Hybrid - INFO - Store full model.
2022-07-09 11:00:14,258 - full-Hybrid - INFO - Stored data.
2022-07-09 11:00:14,258 - full-Hybrid - INFO - Total Runtime:0.187 minutes
2022-07-09 11:00:15,998 - full-Hybrid - INFO - --- Parameters are parsed for training ---
2022-07-09 11:00:16,804 - full-Hybrid - INFO -  Standard training starts: Hybrid-labeling:TriplePrediction
2022-07-09 11:00:16,804 - full-Hybrid - INFO - FullHybridModel(
  (loss): BCELoss()
  (entity_embeddings): Embedding(1584, 100)
  (relation_embeddings): Embedding(8, 100)
  (sentence_embeddings_train): Embedding(1025, 2304)
  (sentence_embeddings_test): Embedding(972, 2304)
  (sentence_embeddings_valid): Embedding(52, 2304)
  (copaal_veracity_score_train): Embedding(1025, 1)
  (copaal_veracity_score_test): Embedding(972, 1)
  (copaal_veracity_score_valid): Embedding(52, 1)
  (kg_classification_layer): Sequential(
    (0): Linear(in_features=300, out_features=2560, bias=True)
    (1): BatchNorm1d(2560, eps=1e-05, momentum=0.1, affine=True, track_running_stats=True)
    (2): ReLU()
    (3): Dropout(p=0.5, inplace=False)
    (4): Linear(in_features=2560, out_features=2560, bias=True)
  )
  (sentence_classification_layer): Sequential(
    (0): Linear(in_features=2304, out_features=2560, bias=True)
    (1): BatchNorm1d(2560, eps=1e-05, momentum=0.1, affine=True, track_running_stats=True)
    (2): ReLU()
    (3): Dropout(p=0.5, inplace=False)
    (4): Linear(in_features=2560, out_features=2560, bias=True)
  )
  (final_classification_layer): Sequential(
    (0): Linear(in_features=5121, out_features=2560, bias=True)
    (1): BatchNorm1d(2560, eps=1e-05, momentum=0.1, affine=True, track_running_stats=True)
    (2): ReLU()
    (3): Dropout(p=0.5, inplace=False)
    (4): Linear(in_features=2560, out_features=1, bias=True)
  )
)
2022-07-09 11:00:27,229 - full-Hybrid - INFO - Evaluation of Train data: TriplePrediction
2022-07-09 11:00:27,229 - full-Hybrid - INFO - Num of triples 1025
2022-07-09 11:00:27,388 - full-Hybrid - INFO - 0.7639024390243903
2022-07-09 11:00:27,394 - full-Hybrid - INFO -               precision    recall  f1-score   support

           0       0.91      0.60      0.72       525
…
weighted avg       0.72      0.69      0.68       972

2022-07-09 11:00:27,521 - full-Hybrid - INFO - --- Training is completed  ---
2022-07-09 11:00:27,522 - full-Hybrid - INFO - Store full model.
2022-07-09 11:00:27,754 - full-Hybrid - INFO - Stored data.
2022-07-09 11:00:27,754 - full-Hybrid - INFO - Total Runtime:0.196 minutes
2022-07-09 11:00:30,194 - full-Hybrid - INFO - --- Parameters are parsed for training ---
2022-07-09 11:00:31,000 - full-Hybrid - INFO -  Standard training starts: Hybrid-labeling:TriplePrediction
2022-07-09 11:00:31,000 - full-Hybrid - INFO - FullHybridModel(
  (loss): BCELoss()
  (entity_embeddings): Embedding(1614, 100)
  (relation_embeddings): Embedding(8, 100)
  (sentence_embeddings_train): Embedding(1061, 2304)
  (sentence_embeddings_test): Embedding(979, 2304)
  (sentence_embeddings_valid): Embedding(52, 2304)
  (copaal_veracity_score_train): Embedding(1061, 1)
  (copaal_veracity_score_test): Embedding(979, 1)
  (copaal_veracity_score_valid): Embedding(52, 1)
  (kg_classification_layer): Sequential(
    (0): Linear(in_features=300, out_features=2560, bias=True)
    (1): BatchNorm1d(2560, eps=1e-05, momentum=0.1, affine=True, track_running_stats=True)
    (2): ReLU()
    (3): Dropout(p=0.5, inplace=False)
    (4): Linear(in_features=2560, out_features=2560, bias=True)
  )
  (sentence_classification_layer): Sequential(
    (0): Linear(in_features=2304, out_features=2560, bias=True)
    (1): BatchNorm1d(2560, eps=1e-05, momentum=0.1, affine=True, track_running_stats=True)
    (2): ReLU()
    (3): Dropout(p=0.5, inplace=False)
    (4): Linear(in_features=2560, out_features=2560, bias=True)
  )
  (final_classification_layer): Sequential(
    (0): Linear(in_features=5121, out_features=2560, bias=True)
    (1): BatchNorm1d(2560, eps=1e-05, momentum=0.1, affine=True, track_running_stats=True)
    (2): ReLU()
    (3): Dropout(p=0.5, inplace=False)
    (4): Linear(in_features=2560, out_features=1, bias=True)
  )
)
2022-07-09 11:00:40,931 - full-Hybrid - INFO - Evaluation of Train data: TriplePrediction
2022-07-09 11:00:40,932 - full-Hybrid - INFO - Num of triples 1061
2022-07-09 11:00:41,102 - full-Hybrid - INFO - 0.9180018850141376
2022-07-09 11:00:41,109 - full-Hybrid - INFO -               precision    recall  f1-score   support

           0       1.00      0.84      0.92       561
…
weighted avg       0.87      0.84      0.84       979

2022-07-09 11:00:41,241 - full-Hybrid - INFO - --- Training is completed  ---
2022-07-09 11:00:41,241 - full-Hybrid - INFO - Store full model.
2022-07-09 11:00:41,479 - full-Hybrid - INFO - Stored data.
2022-07-09 11:00:41,479 - full-Hybrid - INFO - Total Runtime:0.188 minutes
2022-07-09 11:08:09,237 - full-Hybrid - INFO - --- Parameters are parsed for training ---
2022-07-09 11:08:10,080 - full-Hybrid - INFO -  Standard training starts: Hybrid-labeling:TriplePrediction
2022-07-09 11:08:10,080 - full-Hybrid - INFO - FullHybridModel(
  (loss): BCELoss()
  (entity_embeddings): Embedding(1707, 100)
  (relation_embeddings): Embedding(8, 100)
  (sentence_embeddings_train): Embedding(1032, 2304)
  (sentence_embeddings_test): Embedding(947, 2304)
  (sentence_embeddings_valid): Embedding(50, 2304)
  (copaal_veracity_score_train): Embedding(1032, 1)
  (copaal_veracity_score_test): Embedding(947, 1)
  (copaal_veracity_score_valid): Embedding(50, 1)
  (kg_classification_layer): Sequential(
    (0): Linear(in_features=300, out_features=2560, bias=True)
    (1): BatchNorm1d(2560, eps=1e-05, momentum=0.1, affine=True, track_running_stats=True)
    (2): ReLU()
    (3): Dropout(p=0.5, inplace=False)
    (4): Linear(in_features=2560, out_features=2560, bias=True)
  )
  (sentence_classification_layer): Sequential(
    (0): Linear(in_features=2304, out_features=2560, bias=True)
    (1): BatchNorm1d(2560, eps=1e-05, momentum=0.1, affine=True, track_running_stats=True)
    (2): ReLU()
    (3): Dropout(p=0.5, inplace=False)
    (4): Linear(in_features=2560, out_features=2560, bias=True)
  )
  (final_classification_layer): Sequential(
    (0): Linear(in_features=5121, out_features=2560, bias=True)
    (1): BatchNorm1d(2560, eps=1e-05, momentum=0.1, affine=True, track_running_stats=True)
    (2): ReLU()
    (3): Dropout(p=0.5, inplace=False)
    (4): Linear(in_features=2560, out_features=1, bias=True)
  )
)
2022-07-09 11:08:35,741 - full-Hybrid - INFO - Evaluation of Train data: TriplePrediction
2022-07-09 11:08:35,742 - full-Hybrid - INFO - Num of triples 1032
2022-07-09 11:08:35,908 - full-Hybrid - INFO - 0.9786821705426356
2022-07-09 11:08:35,916 - full-Hybrid - INFO -               precision    recall  f1-score   support

           0       0.99      0.97      0.98       532
…
weighted avg       0.97      0.97      0.97       947

2022-07-09 11:08:36,050 - full-Hybrid - INFO - --- Training is completed  ---
2022-07-09 11:08:36,050 - full-Hybrid - INFO - Store full model.
2022-07-09 11:08:36,299 - full-Hybrid - INFO - Stored data.
2022-07-09 11:08:36,299 - full-Hybrid - INFO - Total Runtime:0.451 minutes
2022-07-09 11:08:38,107 - full-Hybrid - INFO - --- Parameters are parsed for training ---
2022-07-09 11:08:38,872 - full-Hybrid - INFO -  Standard training starts: Hybrid-labeling:TriplePrediction
2022-07-09 11:08:38,873 - full-Hybrid - INFO - FullHybridModel(
  (loss): BCELoss()
  (entity_embeddings): Embedding(1512, 100)
  (relation_embeddings): Embedding(8, 100)
  (sentence_embeddings_train): Embedding(999, 2304)
  (sentence_embeddings_test): Embedding(935, 2304)
  (sentence_embeddings_valid): Embedding(50, 2304)
  (copaal_veracity_score_train): Embedding(999, 1)
  (copaal_veracity_score_test): Embedding(935, 1)
  (copaal_veracity_score_valid): Embedding(50, 1)
  (kg_classification_layer): Sequential(
    (0): Linear(in_features=300, out_features=2560, bias=True)
    (1): BatchNorm1d(2560, eps=1e-05, momentum=0.1, affine=True, track_running_stats=True)
    (2): ReLU()
    (3): Dropout(p=0.5, inplace=False)
    (4): Linear(in_features=2560, out_features=2560, bias=True)
  )
  (sentence_classification_layer): Sequential(
    (0): Linear(in_features=2304, out_features=2560, bias=True)
    (1): BatchNorm1d(2560, eps=1e-05, momentum=0.1, affine=True, track_running_stats=True)
    (2): ReLU()
    (3): Dropout(p=0.5, inplace=False)
    (4): Linear(in_features=2560, out_features=2560, bias=True)
  )
  (final_classification_layer): Sequential(
    (0): Linear(in_features=5121, out_features=2560, bias=True)
    (1): BatchNorm1d(2560, eps=1e-05, momentum=0.1, affine=True, track_running_stats=True)
    (2): ReLU()
    (3): Dropout(p=0.5, inplace=False)
    (4): Linear(in_features=2560, out_features=1, bias=True)
  )
)
2022-07-09 11:09:04,333 - full-Hybrid - INFO - Evaluation of Train data: TriplePrediction
2022-07-09 11:09:04,334 - full-Hybrid - INFO - Num of triples 999
2022-07-09 11:09:04,491 - full-Hybrid - INFO - 0.8148148148148148
2022-07-09 11:09:04,497 - full-Hybrid - INFO -               precision    recall  f1-score   support

           0       0.87      0.74      0.80       499
…
