2022-07-09 11:13:26,460 - text-only - INFO - --- Parameters are parsed for training ---
2022-07-09 11:13:27,215 - text-only - INFO -  Standard training starts: TextModel-labeling:TriplePrediction
2022-07-09 11:13:27,215 - text-only - INFO - TextModel(
  (loss): BCELoss()
  (sentence_embeddings_train): Embedding(1032, 2304)
  (sentence_embeddings_test): Embedding(947, 2304)
  (sentence_embeddings_valid): Embedding(50, 2304)
  (sentence_classification_layer): Sequential(
    (0): Linear(in_features=2304, out_features=2560, bias=True)
    (1): BatchNorm1d(2560, eps=1e-05, momentum=0.1, affine=True, track_running_stats=True)
    (2): ReLU()
    (3): Dropout(p=0.5, inplace=False)
    (4): Linear(in_features=2560, out_features=2560, bias=True)
  )
  (final_classification_layer): Sequential(
    (0): Linear(in_features=2560, out_features=2560, bias=True)
    (1): BatchNorm1d(2560, eps=1e-05, momentum=0.1, affine=True, track_running_stats=True)
    (2): ReLU()
    (3): Dropout(p=0.5, inplace=False)
    (4): Linear(in_features=2560, out_features=1, bias=True)
  )
)
2022-07-09 11:13:50,327 - text-only - INFO - Evaluation of Train data: TriplePrediction
2022-07-09 11:13:50,327 - text-only - INFO - Num of triples 1032
2022-07-09 11:13:50,435 - text-only - INFO - 0.6957364341085271
2022-07-09 11:13:50,442 - text-only - INFO -               precision    recall  f1-score   support

           0       0.63      0.98      0.77       532
…
weighted avg       0.76      0.68      0.65       947

2022-07-09 11:13:50,518 - text-only - INFO - --- Training is completed  ---
2022-07-09 11:13:50,518 - text-only - INFO - Store full model.
2022-07-09 11:13:50,669 - text-only - INFO - Stored data.
2022-07-09 11:13:50,669 - text-only - INFO - Total Runtime:0.403 minutes
2022-07-09 11:13:51,404 - text-only - INFO - --- Parameters are parsed for training ---
2022-07-09 11:13:52,060 - text-only - INFO -  Standard training starts: TextModel-labeling:TriplePrediction
2022-07-09 11:13:52,061 - text-only - INFO - TextModel(
  (loss): BCELoss()
  (sentence_embeddings_train): Embedding(999, 2304)
  (sentence_embeddings_test): Embedding(935, 2304)
  (sentence_embeddings_valid): Embedding(50, 2304)
  (sentence_classification_layer): Sequential(
    (0): Linear(in_features=2304, out_features=2560, bias=True)
    (1): BatchNorm1d(2560, eps=1e-05, momentum=0.1, affine=True, track_running_stats=True)
    (2): ReLU()
    (3): Dropout(p=0.5, inplace=False)
    (4): Linear(in_features=2560, out_features=2560, bias=True)
  )
  (final_classification_layer): Sequential(
    (0): Linear(in_features=2560, out_features=2560, bias=True)
    (1): BatchNorm1d(2560, eps=1e-05, momentum=0.1, affine=True, track_running_stats=True)
    (2): ReLU()
    (3): Dropout(p=0.5, inplace=False)
    (4): Linear(in_features=2560, out_features=1, bias=True)
  )
)
2022-07-09 11:14:15,450 - text-only - INFO - Evaluation of Train data: TriplePrediction
2022-07-09 11:14:15,451 - text-only - INFO - Num of triples 999
2022-07-09 11:14:15,563 - text-only - INFO - 0.7207207207207207
2022-07-09 11:14:15,570 - text-only - INFO -               precision    recall  f1-score   support

           0       0.64      1.00      0.78       499
…
weighted avg       0.79      0.70      0.68       935

2022-07-09 11:14:15,652 - text-only - INFO - --- Training is completed  ---
2022-07-09 11:14:15,652 - text-only - INFO - Store full model.
2022-07-09 11:14:15,794 - text-only - INFO - Stored data.
2022-07-09 11:14:15,795 - text-only - INFO - Total Runtime:0.407 minutes
2022-07-09 11:14:16,524 - text-only - INFO - --- Parameters are parsed for training ---
2022-07-09 11:14:17,143 - text-only - INFO -  Standard training starts: TextModel-labeling:TriplePrediction
2022-07-09 11:14:17,143 - text-only - INFO - TextModel(
  (loss): BCELoss()
  (sentence_embeddings_train): Embedding(1000, 2304)
  (sentence_embeddings_test): Embedding(935, 2304)
  (sentence_embeddings_valid): Embedding(50, 2304)
  (sentence_classification_layer): Sequential(
    (0): Linear(in_features=2304, out_features=2560, bias=True)
    (1): BatchNorm1d(2560, eps=1e-05, momentum=0.1, affine=True, track_running_stats=True)
    (2): ReLU()
    (3): Dropout(p=0.5, inplace=False)
    (4): Linear(in_features=2560, out_features=2560, bias=True)
  )
  (final_classification_layer): Sequential(
    (0): Linear(in_features=2560, out_features=2560, bias=True)
    (1): BatchNorm1d(2560, eps=1e-05, momentum=0.1, affine=True, track_running_stats=True)
    (2): ReLU()
    (3): Dropout(p=0.5, inplace=False)
    (4): Linear(in_features=2560, out_features=1, bias=True)
  )
)
2022-07-09 11:14:40,456 - text-only - INFO - Evaluation of Train data: TriplePrediction
2022-07-09 11:14:40,457 - text-only - INFO - Num of triples 1000
2022-07-09 11:14:40,531 - text-only - INFO - 0.717
2022-07-09 11:14:40,537 - text-only - INFO -               precision    recall  f1-score   support

           0       0.64      0.99      0.78       500
…
weighted avg       0.78      0.70      0.68       935

2022-07-09 11:14:40,618 - text-only - INFO - --- Training is completed  ---
2022-07-09 11:14:40,618 - text-only - INFO - Store full model.
2022-07-09 11:14:40,758 - text-only - INFO - Stored data.
2022-07-09 11:14:40,758 - text-only - INFO - Total Runtime:0.404 minutes
2022-07-09 11:14:41,488 - text-only - INFO - --- Parameters are parsed for training ---
2022-07-09 11:14:42,107 - text-only - INFO -  Standard training starts: TextModel-labeling:TriplePrediction
2022-07-09 11:14:42,108 - text-only - INFO - TextModel(
  (loss): BCELoss()
  (sentence_embeddings_train): Embedding(990, 2304)
  (sentence_embeddings_test): Embedding(939, 2304)
  (sentence_embeddings_valid): Embedding(50, 2304)
  (sentence_classification_layer): Sequential(
    (0): Linear(in_features=2304, out_features=2560, bias=True)
    (1): BatchNorm1d(2560, eps=1e-05, momentum=0.1, affine=True, track_running_stats=True)
    (2): ReLU()
    (3): Dropout(p=0.5, inplace=False)
    (4): Linear(in_features=2560, out_features=2560, bias=True)
  )
  (final_classification_layer): Sequential(
    (0): Linear(in_features=2560, out_features=2560, bias=True)
    (1): BatchNorm1d(2560, eps=1e-05, momentum=0.1, affine=True, track_running_stats=True)
    (2): ReLU()
    (3): Dropout(p=0.5, inplace=False)
    (4): Linear(in_features=2560, out_features=1, bias=True)
  )
)
2022-07-09 11:15:06,865 - text-only - INFO - Evaluation of Train data: TriplePrediction
2022-07-09 11:15:06,866 - text-only - INFO - Num of triples 990
2022-07-09 11:15:06,969 - text-only - INFO - 0.7181818181818181
2022-07-09 11:15:06,975 - text-only - INFO -               precision    recall  f1-score   support

           0       0.64      1.00      0.78       490
…
weighted avg       0.79      0.71      0.68       939

2022-07-09 11:15:07,053 - text-only - INFO - --- Training is completed  ---
2022-07-09 11:15:07,053 - text-only - INFO - Store full model.
2022-07-09 11:15:07,199 - text-only - INFO - Stored data.
2022-07-09 11:15:07,199 - text-only - INFO - Total Runtime:0.429 minutes
2022-07-09 11:15:07,941 - text-only - INFO - --- Parameters are parsed for training ---
2022-07-09 11:15:08,587 - text-only - INFO -  Standard training starts: TextModel-labeling:TriplePrediction
2022-07-09 11:15:08,588 - text-only - INFO - TextModel(
  (loss): BCELoss()
  (sentence_embeddings_train): Embedding(1025, 2304)
  (sentence_embeddings_test): Embedding(972, 2304)
  (sentence_embeddings_valid): Embedding(52, 2304)
  (sentence_classification_layer): Sequential(
    (0): Linear(in_features=2304, out_features=2560, bias=True)
    (1): BatchNorm1d(2560, eps=1e-05, momentum=0.1, affine=True, track_running_stats=True)
    (2): ReLU()
    (3): Dropout(p=0.5, inplace=False)
    (4): Linear(in_features=2560, out_features=2560, bias=True)
  )
  (final_classification_layer): Sequential(
    (0): Linear(in_features=2560, out_features=2560, bias=True)
    (1): BatchNorm1d(2560, eps=1e-05, momentum=0.1, affine=True, track_running_stats=True)
    (2): ReLU()
    (3): Dropout(p=0.5, inplace=False)
    (4): Linear(in_features=2560, out_features=1, bias=True)
  )
)
2022-07-09 11:15:32,774 - text-only - INFO - Evaluation of Train data: TriplePrediction
2022-07-09 11:15:32,774 - text-only - INFO - Num of triples 1025
2022-07-09 11:15:32,878 - text-only - INFO - 0.688780487804878
2022-07-09 11:15:32,885 - text-only - INFO -               precision    recall  f1-score   support

           0       0.63      0.98      0.76       525
…
weighted avg       0.75      0.68      0.65       972

2022-07-09 11:15:32,965 - text-only - INFO - --- Training is completed  ---
2022-07-09 11:15:32,966 - text-only - INFO - Store full model.
2022-07-09 11:15:33,106 - text-only - INFO - Stored data.
2022-07-09 11:15:33,107 - text-only - INFO - Total Runtime:0.419 minutes
2022-07-09 11:15:34,444 - text-only - INFO - --- Parameters are parsed for training ---
2022-07-09 11:15:35,114 - text-only - INFO -  Standard training starts: TextModel-labeling:TriplePrediction
2022-07-09 11:15:35,115 - text-only - INFO - TextModel(
  (loss): BCELoss()
  (sentence_embeddings_train): Embedding(1061, 2304)
  (sentence_embeddings_test): Embedding(979, 2304)
  (sentence_embeddings_valid): Embedding(52, 2304)
  (sentence_classification_layer): Sequential(
    (0): Linear(in_features=2304, out_features=2560, bias=True)
    (1): BatchNorm1d(2560, eps=1e-05, momentum=0.1, affine=True, track_running_stats=True)
    (2): ReLU()
    (3): Dropout(p=0.5, inplace=False)
    (4): Linear(in_features=2560, out_features=2560, bias=True)
  )
  (final_classification_layer): Sequential(
    (0): Linear(in_features=2560, out_features=2560, bias=True)
    (1): BatchNorm1d(2560, eps=1e-05, momentum=0.1, affine=True, track_running_stats=True)
    (2): ReLU()
    (3): Dropout(p=0.5, inplace=False)
    (4): Linear(in_features=2560, out_features=1, bias=True)
  )
)
2022-07-09 11:15:59,539 - text-only - INFO - Evaluation of Train data: TriplePrediction
2022-07-09 11:15:59,540 - text-only - INFO - Num of triples 1061
2022-07-09 11:15:59,649 - text-only - INFO - 0.7360980207351555
2022-07-09 11:15:59,655 - text-only - INFO -               precision    recall  f1-score   support

           0       0.67      1.00      0.80       561
…
